node {
  name: "Placeholder"
  op: "Placeholder"
  device: "/device:CPU:0"
  attr {
    key: "_output_shapes"
    value {
      list {
        shape {
          dim {
            size: -1
          }
          dim {
            size: 57
          }
        }
      }
    }
  }
  attr {
    key: "dtype"
    value {
      type: DT_INT64
    }
  }
  attr {
    key: "shape"
    value {
      shape {
        dim {
          size: -1
        }
        dim {
          size: 57
        }
      }
    }
  }
}
node {
  name: "Placeholder_1"
  op: "Placeholder"
  device: "/device:CPU:0"
  attr {
    key: "_output_shapes"
    value {
      list {
        shape {
          dim {
            size: -1
          }
          dim {
            size: 57
          }
        }
      }
    }
  }
  attr {
    key: "dtype"
    value {
      type: DT_INT64
    }
  }
  attr {
    key: "shape"
    value {
      shape {
        dim {
          size: -1
        }
        dim {
          size: 57
        }
      }
    }
  }
}
node {
  name: "fifo_queue"
  op: "FIFOQueueV2"
  device: "/device:CPU:0"
  attr {
    key: "_output_shapes"
    value {
      list {
        shape {
        }
      }
    }
  }
  attr {
    key: "capacity"
    value {
      i: 512
    }
  }
  attr {
    key: "component_types"
    value {
      list {
        type: DT_INT64
        type: DT_INT64
      }
    }
  }
  attr {
    key: "container"
    value {
      s: ""
    }
  }
  attr {
    key: "shapes"
    value {
      list {
        shape {
          dim {
            size: 57
          }
        }
        shape {
          dim {
            size: 57
          }
        }
      }
    }
  }
  attr {
    key: "shared_name"
    value {
      s: ""
    }
  }
}
node {
  name: "fifo_queue_EnqueueMany"
  op: "QueueEnqueueManyV2"
  input: "fifo_queue"
  input: "Placeholder"
  input: "Placeholder_1"
  device: "/device:CPU:0"
  attr {
    key: "Tcomponents"
    value {
      list {
        type: DT_INT64
        type: DT_INT64
      }
    }
  }
  attr {
    key: "timeout_ms"
    value {
      i: -1
    }
  }
}
node {
  name: "fifo_queue_Close"
  op: "QueueCloseV2"
  input: "fifo_queue"
  device: "/device:CPU:0"
  attr {
    key: "cancel_pending_enqueues"
    value {
      b: true
    }
  }
}
node {
  name: "Const"
  op: "Const"
  device: "/device:CPU:0"
  attr {
    key: "_output_shapes"
    value {
      list {
        shape {
          dim {
            size: 3876
          }
        }
      }
    }
  }
  attr {
    key: "dtype"
    value {
      type: DT_STRING
    }
  }
  attr {
    key: "value"
    value {
      tensor {
        dtype: DT_STRING
        tensor_shape {
          dim {
            size: 3876
          }
        }
        string_val: "./downloads/datasets/veri_resized/image_train/0017_c001_00031230_0.jpg"
        string_val: "./downloads/datasets/veri_resized/image_train/0017_c001_00031235_0.jpg"
        string_val: "./downloads/datasets/veri_resized/image_train/0017_c001_00031240_0.jpg"
        string_val: "./downloads/datasets/veri_resized/image_train/0017_c001_00031245_0.jpg"
        string_val: "./downloads/datasets/veri_resized/image_train/0017_c001_00031250_0.jpg"
        string_val: "./downloads/datasets/veri_resized/image_train/0017_c001_00031255_0.jpg"
        string_val: "./downloads/datasets/veri_resized/image_train/0017_c002_00031550_0.jpg"
        string_val: "./downloads/datasets/veri_resized/image_train/0017_c002_00031560_0.jpg"
        string_val: "./downloads/datasets/veri_resized/image_train/0017_c002_00031570_0.jpg"
        string_val: "./downloads/datasets/veri_resized/image_train/0017_c002_00031580_0.jpg"
        string_val: "./downloads/datasets/veri_resized/image_train/0017_c002_00031590_0.jpg"
        string_val: "./downloads/datasets/veri_resized/image_train/0017_c002_00031610_0.jpg"
        string_val: "./downloads/datasets/veri_resized/image_train/0017_c003_00034395_0.jpg"
        string_val: "./downloads/datasets/veri_resized/image_train/0017_c003_00034405_0.jpg"
        string_val: "./downloads/datasets/veri_resized/image_train/0017_c003_00034415_0.jpg"
        string_val: "./downloads/datasets/veri_resized/image_train/0017_c003_00034425_0.jpg"
        string_val: "./downloads/datasets/veri_resized/image_train/0017_c003_00034435_0.jpg"
        string_val: "./downloads/datasets/veri_resized/image_train/0017_c003_00034470_0.jpg"
        string_val: "./downloads/datasets/veri_resized/image_train/0017_c004_00034295_0.jpg"
        string_val: "./downloads/datasets/veri_resized/image_train/0017_c004_00034310_0.jpg"
        string_val: "./downloads/datasets/veri_resized/image_train/0017_c004_00034325_0.jpg"
        string_val: "./downloads/datasets/veri_resized/image_train/0017_c004_00034380_0.jpg"
        string_val: "./downloads/datasets/veri_resized/image_train/0017_c006_00033705_1.jpg"
        string_val: "./downloads/datasets/veri_resized/image_train/0017_c006_00033745_1.jpg"
        string_val: "./downloads/datasets/veri_resized/image_train/0017_c006_00033770_1.jpg"
        string_val: "./downloads/datasets/veri_resized/image_train/0017_c006_00033790_1.jpg"
        string_val: "./downloads/datasets/veri_resized/image_train/0017_c006_00033805_0.jpg"
        string_val: "./downloads/datasets/veri_resized/image_train/0017_c006_00033815_0.jpg"
        string_val: "./downloads/datasets/veri_resized/image_train/0017_c010_00033900_1.jpg"
        string_val: "./downloads/datasets/veri_resized/image_train/0017_c010_00033905_0.jpg"
        string_val: "./downloads/datasets/veri_resized/image_train/0017_c010_00033910_0.jpg"
        string_val: "./downloads/datasets/veri_resized/image_train/0017_c010_00033915_0.jpg"
        string_val: "./downloads/datasets/veri_resized/image_train/0017_c010_00033920_0.jpg"
        string_val: "./downloads/datasets/veri_resized/image_train/0017_c010_00033925_0.jpg"
        string_val: "./downloads/datasets/veri_resized/image_train/0017_c011_00033715_1.jpg"
        string_val: "./downloads/datasets/veri_resized/image_train/0017_c011_00033725_0.jpg"
        string_val: "./downloads/datasets/veri_resized/image_train/0017_c011_00033735_0.jpg"
        string_val: "./downloads/datasets/veri_resized/image_train/0017_c011_00033745_0.jpg"
        string_val: "./downloads/datasets/veri_resized/image_train/0017_c011_00033755_0.jpg"
        string_val: "./downloads/datasets/veri_resized/image_train/0017_c011_00033765_0.jpg"
        string_val: "./downloads/datasets/veri_resized/image_train/0017_c012_00033775_0.jpg"
        string_val: "./downloads/datasets/veri_resized/image_train/0017_c012_00033780_0.jpg"
        string_val: "./downloads/datasets/veri_resized/image_train/0017_c012_00033790_0.jpg"
        string_val: "./downloads/datasets/veri_resized/image_train/0017_c012_00033795_0.jpg"
        string_val: "./downloads/datasets/veri_resized/image_train/0017_c012_00033800_0.jpg"
        string_val: "./downloads/datasets/veri_resized/image_train/0017_c012_00033805_0.jpg"
        string_val: "./downloads/datasets/veri_resized/image_train/0017_c013_00030970_0.jpg"
        string_val: "./downloads/datasets/veri_resized/image_train/0017_c013_00030975_0.jpg"
        string_val: "./downloads/datasets/veri_resized/image_train/0017_c013_00030990_0.jpg"
        string_val: "./downloads/datasets/veri_resized/image_train/0017_c013_00031000_0.jpg"
        string_val: "./downloads/datasets/veri_resized/image_train/0017_c013_00031010_0.jpg"
        string_val: "./downloads/datasets/veri_resized/image_train/0017_c013_00031030_0.jpg"
        string_val: "./downloads/datasets/veri_resized/image_train/0017_c014_00029480_0.jpg"
        string_val: "./downloads/datasets/veri_resized/image_train/0017_c014_00029490_0.jpg"
        string_val: "./downloads/datasets/veri_resized/image_train/0017_c014_00029510_0.jpg"
        string_val: "./downloads/datasets/veri_resized/image_train/0017_c014_00029515_0.jpg"
        string_val: "./downloads/datasets/veri_resized/image_train/0017_c014_00029520_0.jpg"
        string_val: "./downloads/datasets/veri_resized/image_train/0017_c014_00029525_0.jpg"
        string_val: "./downloads/datasets/veri_resized/image_train/0017_c015_00029520_0.jpg"
        string_val: "./downloads/datasets/veri_resized/image_train/0017_c015_00029525_0.jpg"
        string_val: "./downloads/datasets/veri_resized/image_train/0017_c015_00029530_0.jpg"
        string_val: "./downloads/datasets/veri_resized/image_train/0017_c015_00029535_0.jpg"
        string_val: "./downloads/datasets/veri_resized/image_train/0017_c015_00029540_0.jpg"
        string_val: "./downloads/datasets/veri_resized/image_train/0017_c015_00029545_0.jpg"
        string_val: "./downloads/datasets/veri_resized/image_train/0017_c016_00029195_0.jpg"
        string_val: "./downloads/datasets/veri_resized/image_train/0017_c016_00029200_0.jpg"
        string_val: "./downloads/datasets/veri_resized/image_train/0017_c016_00029205_0.jpg"
        string_val: "./downloads/datasets/veri_resized/image_train/0017_c016_00029210_0.jpg"
        string_val: "./downloads/datasets/veri_resized/image_train/0017_c016_00029215_0.jpg"
        string_val: "./downloads/datasets/veri_resized/image_train/0017_c016_00029220_0.jpg"
        string_val: "./downloads/datasets/veri_resized/image_train/0017_c017_00030335_1.jpg"
        string_val: "./downloads/datasets/veri_resized/image_train/0017_c017_00030345_0.jpg"
        string_val: "./downloads/datasets/veri_resized/image_train/0017_c017_00030350_1.jpg"
        string_val: "./downloads/datasets/veri_resized/image_train/0017_c017_00030360_0.jpg"
        string_val: "./downloads/datasets/veri_resized/image_train/0017_c017_00030385_0.jpg"
        string_val: "./downloads/datasets/veri_resized/image_train/0017_c017_00030400_0.jpg"
        string_val: "./downloads/datasets/veri_resized/image_train/0017_c019_00030185_0.jpg"
        string_val: "./downloads/datasets/veri_resized/image_train/0017_c019_00030195_0.jpg"
        string_val: "./downloads/datasets/veri_resized/image_train/0017_c019_00030200_0.jpg"
        string_val: "./downloads/datasets/veri_resized/image_train/0017_c019_00030205_0.jpg"
        string_val: "./downloads/datasets/veri_resized/image_train/0017_c019_00030210_0.jpg"
        string_val: "./downloads/datasets/veri_resized/image_train/0017_c019_00030215_0.jpg"
        string_val: "./downloads/datasets/veri_resized/image_train/0039_c001_00004645_0.jpg"
        string_val: "./downloads/datasets/veri_resized/image_train/0039_c001_00004650_1.jpg"
        string_val: "./downloads/datasets/veri_resized/image_train/0039_c001_00004655_0.jpg"
        string_val: "./downloads/datasets/veri_resized/image_train/0039_c001_00004660_1.jpg"
        string_val: "./downloads/datasets/veri_resized/image_train/0039_c001_00004665_0.jpg"
        string_val: "./downloads/datasets/veri_resized/image_train/0039_c001_00004670_1.jpg"
        string_val: "./downloads/datasets/veri_resized/image_train/0039_c002_00003060_0.jpg"
        string_val: "./downloads/datasets/veri_resized/image_train/0039_c002_00003070_0.jpg"
        string_val: "./downloads/datasets/veri_resized/image_train/0039_c002_00003080_0.jpg"
        string_val: "./downloads/datasets/veri_resized/image_train/0039_c002_00003090_0.jpg"
        string_val: "./downloads/datasets/veri_resized/image_train/0039_c002_00003100_0.jpg"
        string_val: "./downloads/datasets/veri_resized/image_train/0039_c002_00003110_0.jpg"
        string_val: "./downloads/datasets/veri_resized/image_train/0039_c003_00000710_1.jpg"
        string_val: "./downloads/datasets/veri_resized/image_train/0039_c003_00000725_1.jpg"
        string_val: "./downloads/datasets/veri_resized/image_train/0039_c003_00000735_1.jpg"
        string_val: "./downloads/datasets/veri_resized/image_train/0039_c003_00000740_1.jpg"
        string_val: "./downloads/datasets/veri_resized/image_train/0039_c003_00000745_1.jpg"
        string_val: "./downloads/datasets/veri_resized/image_train/0039_c003_00000750_0.jpg"
        string_val: "./downloads/datasets/veri_resized/image_train/0039_c004_00000605_1.jpg"
        string_val: "./downloads/datasets/veri_resized/image_train/0039_c004_00000610_0.jpg"
        string_val: "./downloads/datasets/veri_resized/image_train/0039_c004_00000615_0.jpg"
        string_val: "./downloads/datasets/veri_resized/image_train/0039_c004_00000620_0.jpg"
        string_val: "./downloads/datasets/veri_resized/image_train/0039_c004_00000625_0.jpg"
        string_val: "./downloads/datasets/veri_resized/image_train/0039_c004_00000630_0.jpg"
        string_val: "./downloads/datasets/veri_resized/image_train/0039_c006_00001180_0.jpg"
        string_val: "./downloads/datasets/veri_resized/image_train/0039_c006_00001195_0.jpg"
        string_val: "./downloads/datasets/veri_resized/image_train/0039_c006_00001200_0.jpg"
        string_val: "./downloads/datasets/veri_resized/image_train/0039_c006_00001205_0.jpg"
        string_val: "./downloads/datasets/veri_resized/image_train/0039_c006_00001215_0.jpg"
        string_val: "./downloads/datasets/veri_resized/image_train/0039_c006_00001225_0.jpg"
        string_val: "./downloads/datasets/veri_resized/image_train/0039_c008_00000505_0.jpg"
        string_val: "./downloads/datasets/veri_resized/image_train/0039_c008_00000515_0.jpg"
        string_val: "./downloads/datasets/veri_resized/image_train/0039_c008_00000520_0.jpg"
        string_val: "./downloads/datasets/veri_resized/image_train/0039_c008_00000525_0.jpg"
        string_val: "./downloads/datasets/veri_resized/image_train/0039_c008_00000535_0.jpg"
        string_val: "./downloads/datasets/veri_resized/image_train/0039_c009_00000535_0.jpg"
        string_val: "./downloads/datasets/veri_resized/image_train/0039_c009_00000545_0.jpg"
        string_val: "./downloads/datasets/veri_resized/image_train/0039_c009_00000555_0.jpg"
        string_val: "./downloads/datasets/veri_resized/image_train/0039_c009_00000565_0.jpg"
        string_val: "./downloads/datasets/veri_resized/image_train/0039_c009_00000575_0.jpg"
        string_val: "./downloads/datasets/veri_resized/image_train/0039_c009_00000580_0.jpg"
        string_val: "./downloads/datasets/veri_resized/image_train/0039_c010_00001140_0.jpg"
        string_val: "./downloads/datasets/veri_resized/image_train/0039_c010_00001145_0.jpg"
        string_val: "./downloads/datasets/veri_resized/image_train/0039_c010_00001150_0.jpg"
        string_val: "./downloads/datasets/veri_resized/image_train/0039_c010_00001155_0.jpg"
        string_val: "./downloads/datasets/veri_resized/image_train/0039_c010_00001160_0.jpg"
        string_val: "./downloads/datasets/veri_resized/image_train/0039_c010_00001165_0.jpg"
        string_val: "./downloads/datasets/veri_resized/image_train/0039_c011_00001135_0.jpg"
        string_val: "./downloads/datasets/veri_resized/image_train/0039_c011_00001145_0.jpg"
        string_val: "./downloads/datasets/veri_resized/image_train/0039_c011_00001150_0.jpg"
        string_val: "./downloads/datasets/veri_resized/image_train/0039_c011_00001155_0.jpg"
        string_val: "./downloads/datasets/veri_resized/image_train/0039_c011_00001160_0.jpg"
        string_val: "./downloads/datasets/veri_resized/image_train/0039_c011_00001175_0.jpg"
        string_val: "./downloads/datasets/veri_resized/image_train/0039_c012_00005285_0.jpg"
        string_val: "./downloads/datasets/veri_resized/image_train/0039_c012_00005290_0.jpg"
        string_val: "./downloads/datasets/veri_resized/image_train/0039_c012_00005295_0.jpg"
        string_val: "./downloads/datasets/veri_resized/image_train/0039_c012_00005300_0.jpg"
        string_val: "./downloads/datasets/veri_resized/image_train/0039_c012_00005305_0.jpg"
        string_val: "./downloads/datasets/veri_resized/image_train/0039_c012_00005310_0.jpg"
        string_val: "./downloads/datasets/veri_resized/image_train/0039_c013_00005120_0.jpg"
        string_val: "./downloads/datasets/veri_resized/image_train/0039_c013_00005130_0.jpg"
        string_val: "./downloads/datasets/veri_resized/image_train/0039_c013_00005145_0.jpg"
        string_val: "./downloads/datasets/veri_resized/image_train/0039_c014_00008105_0.jpg"
        string_val: "./downloads/datasets/veri_resized/image_train/0039_c014_00008110_0.jpg"
        string_val: "./downloads/datasets/veri_resized/image_train/0039_c014_00008115_0.jpg"
        string_val: "./downloads/datasets/veri_resized/image_train/0039_c014_00008120_0.jpg"
        string_val: "./downloads/datasets/veri_resized/image_train/0039_c015_00007995_0.jpg"
        string_val: "./downloads/datasets/veri_resized/image_train/0039_c015_00008000_0.jpg"
        string_val: "./downloads/datasets/veri_resized/image_train/0039_c015_00008005_0.jpg"
        string_val: "./downloads/datasets/veri_resized/image_train/0039_c015_00008010_0.jpg"
        string_val: "./downloads/datasets/veri_resized/image_train/0039_c015_00008015_0.jpg"
        string_val: "./downloads/datasets/veri_resized/image_train/0039_c015_00008020_0.jpg"
        string_val: "./downloads/datasets/veri_resized/image_train/0039_c016_00008250_0.jpg"
        string_val: "./downloads/datasets/veri_resized/image_train/0039_c016_00008255_0.jpg"
        string_val: "./downloads/datasets/veri_resized/image_train/0039_c016_00008260_1.jpg"
        string_val: "./downloads/datasets/veri_resized/image_train/0039_c017_00007495_0.jpg"
        string_val: "./downloads/datasets/veri_resized/image_train/0039_c017_00007505_0.jpg"
        string_val: "./downloads/datasets/veri_resized/image_train/0039_c017_00007510_0.jpg"
        string_val: "./downloads/datasets/veri_resized/image_train/0039_c017_00007515_0.jpg"
        string_val: "./downloads/datasets/veri_resized/image_train/0039_c017_00007520_0.jpg"
        string_val: "./downloads/datasets/veri_resized/image_train/0039_c017_00007530_0.jpg"
        string_val: "./downloads/datasets/veri_resized/image_train/0039_c019_00007620_1.jpg"
        string_val: "./downloads/datasets/veri_resized/image_train/0039_c019_00007625_1.jpg"
        string_val: "./downloads/datasets/veri_resized/image_train/0039_c019_00007630_1.jpg"
        string_val: "./downloads/datasets/veri_resized/image_train/0039_c019_00007635_1.jpg"
        string_val: "./downloads/datasets/veri_resized/image_train/0039_c019_00007645_0.jpg"
        string_val: "./downloads/datasets/veri_resized/image_train/0039_c019_00007650_0.jpg"
        string_val: "./downloads/datasets/veri_resized/image_train/0078_c002_00038550_1.jpg"
        string_val: "./downloads/datasets/veri_resized/image_train/0078_c002_00038560_1.jpg"
        string_val: "./downloads/datasets/veri_resized/image_train/0078_c002_00038570_1.jpg"
        string_val: "./downloads/datasets/veri_resized/image_train/0078_c002_00038580_1.jpg"
        string_val: "./downloads/datasets/veri_resized/image_train/0078_c002_00038590_1.jpg"
        string_val: "./downloads/datasets/veri_resized/image_train/0078_c002_00038610_1.jpg"
        string_val: "./downloads/datasets/veri_resized/image_train/0078_c003_00035960_1.jpg"
        string_val: "./downloads/datasets/veri_resized/image_train/0078_c003_00035970_1.jpg"
        string_val: "./downloads/datasets/veri_resized/image_train/0078_c003_00035980_1.jpg"
        string_val: "./downloads/datasets/veri_resized/image_train/0078_c003_00035985_0.jpg"
        string_val: "./downloads/datasets/veri_resized/image_train/0078_c003_00035995_0.jpg"
        string_val: "./downloads/datasets/veri_resized/image_train/0078_c003_00036000_0.jpg"
        string_val: "./downloads/datasets/veri_resized/image_train/0078_c004_00035875_0.jpg"
        string_val: "./downloads/datasets/veri_resized/image_train/0078_c004_00035880_0.jpg"
        string_val: "./downloads/datasets/veri_resized/image_train/0078_c004_00035885_0.jpg"
        string_val: "./downloads/datasets/veri_resized/image_train/0078_c004_00035890_0.jpg"
        string_val: "./downloads/datasets/veri_resized/image_train/0078_c004_00035895_0.jpg"
        string_val: "./downloads/datasets/veri_resized/image_train/0078_c004_00035900_0.jpg"
        string_val: "./downloads/datasets/veri_resized/image_train/0078_c006_00036600_0.jpg"
        string_val: "./downloads/datasets/veri_resized/image_train/0078_c006_00036620_0.jpg"
        string_val: "./downloads/datasets/veri_resized/image_train/0078_c006_00036625_0.jpg"
        string_val: "./downloads/datasets/veri_resized/image_train/0078_c006_00036635_0.jpg"
        string_val: "./downloads/datasets/veri_resized/image_train/0078_c006_00036660_0.jpg"
        string_val: "./downloads/datasets/veri_resized/image_train/0078_c006_00036675_0.jpg"
        string_val: "./downloads/datasets/veri_resized/image_train/0078_c008_00035690_0.jpg"
        string_val: "./downloads/datasets/veri_resized/image_train/0078_c008_00035715_0.jpg"
        string_val: "./downloads/datasets/veri_resized/image_train/0078_c008_00035725_0.jpg"
        string_val: "./downloads/datasets/veri_resized/image_train/0078_c008_00035735_0.jpg"
        string_val: "./downloads/datasets/veri_resized/image_train/0078_c008_00035740_0.jpg"
        string_val: "./downloads/datasets/veri_resized/image_train/0078_c009_00035780_0.jpg"
        string_val: "./downloads/datasets/veri_resized/image_train/0078_c009_00035785_0.jpg"
        string_val: "./downloads/datasets/veri_resized/image_train/0078_c009_00035790_0.jpg"
        string_val: "./downloads/datasets/veri_resized/image_train/0078_c009_00035795_0.jpg"
        string_val: "./downloads/datasets/veri_resized/image_train/0078_c009_00035800_0.jpg"
        string_val: "./downloads/datasets/veri_resized/image_train/0078_c009_00035805_0.jpg"
        string_val: "./downloads/datasets/veri_resized/image_train/0078_c010_00036515_0.jpg"
        string_val: "./downloads/datasets/veri_resized/image_train/0078_c010_00036525_0.jpg"
        string_val: "./downloads/datasets/veri_resized/image_train/0078_c010_00036535_0.jpg"
        string_val: "./downloads/datasets/veri_resized/image_train/0078_c010_00036545_0.jpg"
        string_val: "./downloads/datasets/veri_resized/image_train/0078_c010_00036555_0.jpg"
        string_val: "./downloads/datasets/veri_resized/image_train/0078_c010_00036565_0.jpg"
        string_val: "./downloads/datasets/veri_resized/image_train/0078_c011_00036575_0.jpg"
        string_val: "./downloads/datasets/veri_resized/image_train/0078_c011_00036585_0.jpg"
        string_val: "./downloads/datasets/veri_resized/image_train/0078_c011_00036595_0.jpg"
        string_val: "./downloads/datasets/veri_resized/image_train/0078_c011_00036605_0.jpg"
        string_val: "./downloads/datasets/veri_resized/image_train/0078_c011_00036615_0.jpg"
        string_val: "./downloads/datasets/veri_resized/image_train/0078_c011_00036625_0.jpg"
        string_val: "./downloads/datasets/veri_resized/image_train/0082_c001_00028980_0.jpg"
        string_val: "./downloads/datasets/veri_resized/image_train/0082_c001_00028990_0.jpg"
        string_val: "./downloads/datasets/veri_resized/image_train/0082_c001_00029000_0.jpg"
        string_val: "./downloads/datasets/veri_resized/image_train/0082_c001_00029010_0.jpg"
        string_val: "./downloads/datasets/veri_resized/image_train/0082_c002_00029295_0.jpg"
        string_val: "./downloads/datasets/veri_resized/image_train/0082_c002_00029305_0.jpg"
        string_val: "./downloads/datasets/veri_resized/image_train/0082_c002_00029315_0.jpg"
        string_val: "./downloads/datasets/veri_resized/image_train/0082_c002_00029325_0.jpg"
        string_val: "./downloads/datasets/veri_resized/image_train/0082_c002_00029335_0.jpg"
        string_val: "./downloads/datasets/veri_resized/image_train/0082_c002_00029345_0.jpg"
        string_val: "./downloads/datasets/veri_resized/image_train/0082_c013_00028675_0.jpg"
        string_val: "./downloads/datasets/veri_resized/image_train/0082_c013_00028685_0.jpg"
        string_val: "./downloads/datasets/veri_resized/image_train/0082_c013_00028695_0.jpg"
        string_val: "./downloads/datasets/veri_resized/image_train/0082_c013_00028705_0.jpg"
        string_val: "./downloads/datasets/veri_resized/image_train/0082_c013_00028720_0.jpg"
        string_val: "./downloads/datasets/veri_resized/image_train/0082_c017_00027595_0.jpg"
        string_val: "./downloads/datasets/veri_resized/image_train/0082_c017_00027610_0.jpg"
        string_val: "./downloads/datasets/veri_resized/image_train/0082_c017_00027710_0.jpg"
        string_val: "./downloads/datasets/veri_resized/image_train/0082_c017_00027740_0.jpg"
        string_val: "./downloads/datasets/veri_resized/image_train/0082_c017_00027770_0.jpg"
        string_val: "./downloads/datasets/veri_resized/image_train/0082_c017_00027805_0.jpg"
        string_val: "./downloads/datasets/veri_resized/image_train/0087_c001_00002570_0.jpg"
        string_val: "./downloads/datasets/veri_resized/image_train/0087_c001_00002580_0.jpg"
        string_val: "./downloads/datasets/veri_resized/image_train/0087_c001_00002590_0.jpg"
        string_val: "./downloads/datasets/veri_resized/image_train/0087_c001_00002600_0.jpg"
        string_val: "./downloads/datasets/veri_resized/image_train/0087_c001_00002610_0.jpg"
        string_val: "./downloads/datasets/veri_resized/image_train/0087_c001_00002615_0.jpg"
        string_val: "./downloads/datasets/veri_resized/image_train/0087_c012_00002235_0.jpg"
        string_val: "./downloads/datasets/veri_resized/image_train/0087_c012_00002240_0.jpg"
        string_val: "./downloads/datasets/veri_resized/image_train/0087_c012_00002245_0.jpg"
        string_val: "./downloads/datasets/veri_resized/image_train/0087_c012_00002250_0.jpg"
        string_val: "./downloads/datasets/veri_resized/image_train/0087_c012_00002255_0.jpg"
        string_val: "./downloads/datasets/veri_resized/image_train/0087_c012_00002260_0.jpg"
        string_val: "./downloads/datasets/veri_resized/image_train/0087_c013_00002315_0.jpg"
        string_val: "./downloads/datasets/veri_resized/image_train/0087_c013_00002325_0.jpg"
        string_val: "./downloads/datasets/veri_resized/image_train/0087_c013_00002335_0.jpg"
        string_val: "./downloads/datasets/veri_resized/image_train/0087_c013_00002345_0.jpg"
        string_val: "./downloads/datasets/veri_resized/image_train/0087_c013_00002355_0.jpg"
        string_val: "./downloads/datasets/veri_resized/image_train/0087_c013_00002365_0.jpg"
        string_val: "./downloads/datasets/veri_resized/image_train/0087_c014_00000765_0.jpg"
        string_val: "./downloads/datasets/veri_resized/image_train/0087_c014_00000770_0.jpg"
        string_val: "./downloads/datasets/veri_resized/image_train/0087_c014_00000830_0.jpg"
        string_val: "./downloads/datasets/veri_resized/image_train/0087_c014_00000845_0.jpg"
        string_val: "./downloads/datasets/veri_resized/image_train/0087_c014_00000860_0.jpg"
        string_val: "./downloads/datasets/veri_resized/image_train/0087_c014_00000875_0.jpg"
        string_val: "./downloads/datasets/veri_resized/image_train/0087_c015_00000955_0.jpg"
        string_val: "./downloads/datasets/veri_resized/image_train/0087_c015_00000960_0.jpg"
        string_val: "./downloads/datasets/veri_resized/image_train/0087_c015_00000965_0.jpg"
        string_val: "./downloads/datasets/veri_resized/image_train/0087_c015_00000975_0.jpg"
        string_val: "./downloads/datasets/veri_resized/image_train/0087_c015_00000980_0.jpg"
        string_val: "./downloads/datasets/veri_resized/image_train/0087_c015_00000990_0.jpg"
        string_val: "./downloads/datasets/veri_resized/image_train/0087_c016_00000570_0.jpg"
        string_val: "./downloads/datasets/veri_resized/image_train/0087_c016_00000575_0.jpg"
        string_val: "./downloads/datasets/veri_resized/image_train/0087_c016_00000580_0.jpg"
        string_val: "./downloads/datasets/veri_resized/image_train/0087_c016_00000590_0.jpg"
        string_val: "./downloads/datasets/veri_resized/image_train/0087_c016_00000595_0.jpg"
        string_val: "./downloads/datasets/veri_resized/image_train/0087_c016_00000600_0.jpg"
        string_val: "./downloads/datasets/veri_resized/image_train/0087_c017_00001695_0.jpg"
        string_val: "./downloads/datasets/veri_resized/image_train/0087_c017_00001715_0.jpg"
        string_val: "./downloads/datasets/veri_resized/image_train/0087_c017_00001735_0.jpg"
        string_val: "./downloads/datasets/veri_resized/image_train/0087_c017_00001745_0.jpg"
        string_val: "./downloads/datasets/veri_resized/image_train/0087_c017_00001755_0.jpg"
        string_val: "./downloads/datasets/veri_resized/image_train/0087_c019_00001585_0.jpg"
        string_val: "./downloads/datasets/veri_resized/image_train/0087_c019_00001590_0.jpg"
        string_val: "./downloads/datasets/veri_resized/image_train/0087_c019_00001595_0.jpg"
        string_val: "./downloads/datasets/veri_resized/image_train/0087_c019_00001600_0.jpg"
        string_val: "./downloads/datasets/veri_resized/image_train/0087_c019_00001605_0.jpg"
        string_val: "./downloads/datasets/veri_resized/image_train/0087_c019_00001610_0.jpg"
        string_val: "./downloads/datasets/veri_resized/image_train/0097_c003_00015475_1.jpg"
        string_val: "./downloads/datasets/veri_resized/image_train/0097_c003_00015485_1.jpg"
        string_val: "./downloads/datasets/veri_resized/image_train/0097_c003_00015505_0.jpg"
        string_val: "./downloads/datasets/veri_resized/image_train/0097_c003_00015520_0.jpg"
        string_val: "./downloads/datasets/veri_resized/image_train/0097_c003_00015565_1.jpg"
        string_val: "./downloads/datasets/veri_resized/image_train/0097_c003_00015575_1.jpg"
        string_val: "./downloads/datasets/veri_resized/image_train/0097_c005_00083330_0.jpg"
        string_val: "./downloads/datasets/veri_resized/image_train/0097_c005_00083340_0.jpg"
        string_val: "./downloads/datasets/veri_resized/image_train/0097_c005_00083355_0.jpg"
        string_val: "./downloads/datasets/veri_resized/image_train/0097_c005_00083370_0.jpg"
        string_val: "./downloads/datasets/veri_resized/image_train/0097_c005_00083380_0.jpg"
        string_val: "./downloads/datasets/veri_resized/image_train/0097_c005_00083390_0.jpg"
        string_val: "./downloads/datasets/veri_resized/image_train/0097_c007_00083435_0.jpg"
        string_val: "./downloads/datasets/veri_resized/image_train/0097_c007_00083440_0.jpg"
        string_val: "./downloads/datasets/veri_resized/image_train/0097_c007_00083450_0.jpg"
        string_val: "./downloads/datasets/veri_resized/image_train/0097_c007_00083460_0.jpg"
        string_val: "./downloads/datasets/veri_resized/image_train/0097_c007_00083470_0.jpg"
        string_val: "./downloads/datasets/veri_resized/image_train/0097_c007_00083475_0.jpg"
        string_val: "./downloads/datasets/veri_resized/image_train/0097_c008_00082595_0.jpg"
        string_val: "./downloads/datasets/veri_resized/image_train/0097_c008_00082600_0.jpg"
        string_val: "./downloads/datasets/veri_resized/image_train/0097_c008_00082605_0.jpg"
        string_val: "./downloads/datasets/veri_resized/image_train/0097_c008_00082610_0.jpg"
        string_val: "./downloads/datasets/veri_resized/image_train/0097_c008_00082615_0.jpg"
        string_val: "./downloads/datasets/veri_resized/image_train/0097_c009_00082535_0.jpg"
        string_val: "./downloads/datasets/veri_resized/image_train/0097_c009_00082540_0.jpg"
        string_val: "./downloads/datasets/veri_resized/image_train/0097_c009_00082545_0.jpg"
        string_val: "./downloads/datasets/veri_resized/image_train/0097_c009_00082550_0.jpg"
        string_val: "./downloads/datasets/veri_resized/image_train/0097_c009_00082555_0.jpg"
        string_val: "./downloads/datasets/veri_resized/image_train/0097_c009_00082560_0.jpg"
        string_val: "./downloads/datasets/veri_resized/image_train/0098_c001_00024790_0.jpg"
        string_val: "./downloads/datasets/veri_resized/image_train/0098_c001_00024800_0.jpg"
        string_val: "./downloads/datasets/veri_resized/image_train/0098_c001_00024810_0.jpg"
        string_val: "./downloads/datasets/veri_resized/image_train/0098_c001_00024820_0.jpg"
        string_val: "./downloads/datasets/veri_resized/image_train/0098_c001_00024830_0.jpg"
        string_val: "./downloads/datasets/veri_resized/image_train/0098_c001_00024840_0.jpg"
        string_val: "./downloads/datasets/veri_resized/image_train/0098_c012_00025220_0.jpg"
        string_val: "./downloads/datasets/veri_resized/image_train/0098_c012_00025225_0.jpg"
        string_val: "./downloads/datasets/veri_resized/image_train/0098_c012_00025235_0.jpg"
        string_val: "./downloads/datasets/veri_resized/image_train/0098_c012_00025240_0.jpg"
        string_val: "./downloads/datasets/veri_resized/image_train/0098_c012_00025245_0.jpg"
        string_val: "./downloads/datasets/veri_resized/image_train/0098_c012_00025250_0.jpg"
        string_val: "./downloads/datasets/veri_resized/image_train/0098_c013_00025075_0.jpg"
        string_val: "./downloads/datasets/veri_resized/image_train/0098_c013_00025090_0.jpg"
        string_val: "./downloads/datasets/veri_resized/image_train/0098_c013_00025105_0.jpg"
        string_val: "./downloads/datasets/veri_resized/image_train/0098_c013_00025110_0.jpg"
        string_val: "./downloads/datasets/veri_resized/image_train/0098_c014_00026755_0.jpg"
        string_val: "./downloads/datasets/veri_resized/image_train/0098_c014_00026760_0.jpg"
        string_val: "./downloads/datasets/veri_resized/image_train/0098_c014_00026765_0.jpg"
        string_val: "./downloads/datasets/veri_resized/image_train/0098_c014_00026770_0.jpg"
        string_val: "./downloads/datasets/veri_resized/image_train/0098_c014_00026775_0.jpg"
        string_val: "./downloads/datasets/veri_resized/image_train/0098_c014_00026780_0.jpg"
        string_val: "./downloads/datasets/veri_resized/image_train/0098_c015_00026585_0.jpg"
        string_val: "./downloads/datasets/veri_resized/image_train/0098_c015_00026590_0.jpg"
        string_val: "./downloads/datasets/veri_resized/image_train/0098_c015_00026595_0.jpg"
        string_val: "./downloads/datasets/veri_resized/image_train/0098_c015_00026600_0.jpg"
        string_val: "./downloads/datasets/veri_resized/image_train/0098_c015_00026605_0.jpg"
        string_val: "./downloads/datasets/veri_resized/image_train/0098_c015_00026620_0.jpg"
        string_val: "./downloads/datasets/veri_resized/image_train/0098_c016_00027045_0.jpg"
        string_val: "./downloads/datasets/veri_resized/image_train/0098_c016_00027050_0.jpg"
        string_val: "./downloads/datasets/veri_resized/image_train/0098_c016_00027055_0.jpg"
        string_val: "./downloads/datasets/veri_resized/image_train/0098_c016_00027060_0.jpg"
        string_val: "./downloads/datasets/veri_resized/image_train/0098_c017_00025790_0.jpg"
        string_val: "./downloads/datasets/veri_resized/image_train/0098_c017_00025800_0.jpg"
        string_val: "./downloads/datasets/veri_resized/image_train/0098_c017_00025810_0.jpg"
        string_val: "./downloads/datasets/veri_resized/image_train/0098_c017_00025820_0.jpg"
        string_val: "./downloads/datasets/veri_resized/image_train/0098_c017_00025830_0.jpg"
        string_val: "./downloads/datasets/veri_resized/image_train/0098_c017_00025840_0.jpg"
        string_val: "./downloads/datasets/veri_resized/image_train/0098_c019_00025985_0.jpg"
        string_val: "./downloads/datasets/veri_resized/image_train/0098_c019_00025995_0.jpg"
        string_val: "./downloads/datasets/veri_resized/image_train/0098_c019_00026005_0.jpg"
        string_val: "./downloads/datasets/veri_resized/image_train/0098_c019_00026010_0.jpg"
        string_val: "./downloads/datasets/veri_resized/image_train/0098_c019_00026015_0.jpg"
        string_val: "./downloads/datasets/veri_resized/image_train/0098_c019_00026020_0.jpg"
        string_val: "./downloads/datasets/veri_resized/image_train/0121_c003_00017925_0.jpg"
        string_val: "./downloads/datasets/veri_resized/image_train/0121_c003_00017935_0.jpg"
        string_val: "./downloads/datasets/veri_resized/image_train/0121_c003_00017945_0.jpg"
        string_val: "./downloads/datasets/veri_resized/image_train/0121_c003_00017955_0.jpg"
        string_val: "./downloads/datasets/veri_resized/image_train/0121_c003_00017965_0.jpg"
        string_val: "./downloads/datasets/veri_resized/image_train/0121_c003_00017975_1.jpg"
        string_val: "./downloads/datasets/veri_resized/image_train/0121_c004_00017900_0.jpg"
        string_val: "./downloads/datasets/veri_resized/image_train/0121_c004_00017910_0.jpg"
        string_val: "./downloads/datasets/veri_resized/image_train/0121_c004_00017920_0.jpg"
        string_val: "./downloads/datasets/veri_resized/image_train/0121_c004_00017930_0.jpg"
        string_val: "./downloads/datasets/veri_resized/image_train/0121_c004_00017940_0.jpg"
        string_val: "./downloads/datasets/veri_resized/image_train/0121_c004_00017955_0.jpg"
        string_val: "./downloads/datasets/veri_resized/image_train/0121_c005_00018965_0.jpg"
        string_val: "./downloads/datasets/veri_resized/image_train/0121_c005_00018980_0.jpg"
        string_val: "./downloads/datasets/veri_resized/image_train/0121_c005_00019000_0.jpg"
        string_val: "./downloads/datasets/veri_resized/image_train/0121_c005_00019020_0.jpg"
        string_val: "./downloads/datasets/veri_resized/image_train/0121_c005_00019045_0.jpg"
        string_val: "./downloads/datasets/veri_resized/image_train/0121_c005_00019060_0.jpg"
        string_val: "./downloads/datasets/veri_resized/image_train/0121_c006_00010575_0.jpg"
        string_val: "./downloads/datasets/veri_resized/image_train/0121_c006_00010600_0.jpg"
        string_val: "./downloads/datasets/veri_resized/image_train/0121_c006_00010625_0.jpg"
        string_val: "./downloads/datasets/veri_resized/image_train/0121_c006_00010640_0.jpg"
        string_val: "./downloads/datasets/veri_resized/image_train/0121_c006_00010655_0.jpg"
        string_val: "./downloads/datasets/veri_resized/image_train/0121_c006_00010680_0.jpg"
        string_val: "./downloads/datasets/veri_resized/image_train/0121_c008_00018295_0.jpg"
        string_val: "./downloads/datasets/veri_resized/image_train/0121_c008_00018300_0.jpg"
        string_val: "./downloads/datasets/veri_resized/image_train/0121_c008_00018305_0.jpg"
        string_val: "./downloads/datasets/veri_resized/image_train/0121_c008_00018310_0.jpg"
        string_val: "./downloads/datasets/veri_resized/image_train/0121_c008_00018315_0.jpg"
        string_val: "./downloads/datasets/veri_resized/image_train/0121_c009_00018165_0.jpg"
        string_val: "./downloads/datasets/veri_resized/image_train/0121_c009_00018170_0.jpg"
        string_val: "./downloads/datasets/veri_resized/image_train/0121_c009_00018175_0.jpg"
        string_val: "./downloads/datasets/veri_resized/image_train/0121_c009_00018180_0.jpg"
        string_val: "./downloads/datasets/veri_resized/image_train/0121_c009_00018185_0.jpg"
        string_val: "./downloads/datasets/veri_resized/image_train/0121_c009_00018190_0.jpg"
        string_val: "./downloads/datasets/veri_resized/image_train/0121_c010_00010775_0.jpg"
        string_val: "./downloads/datasets/veri_resized/image_train/0121_c010_00010780_0.jpg"
        string_val: "./downloads/datasets/veri_resized/image_train/0121_c010_00010790_0.jpg"
        string_val: "./downloads/datasets/veri_resized/image_train/0121_c010_00010795_0.jpg"
        string_val: "./downloads/datasets/veri_resized/image_train/0121_c010_00010800_0.jpg"
        string_val: "./downloads/datasets/veri_resized/image_train/0121_c011_00010525_0.jpg"
        string_val: "./downloads/datasets/veri_resized/image_train/0121_c011_00010535_0.jpg"
        string_val: "./downloads/datasets/veri_resized/image_train/0121_c011_00010545_0.jpg"
        string_val: "./downloads/datasets/veri_resized/image_train/0121_c011_00010555_0.jpg"
        string_val: "./downloads/datasets/veri_resized/image_train/0121_c011_00010565_0.jpg"
        string_val: "./downloads/datasets/veri_resized/image_train/0121_c011_00010590_0.jpg"
        string_val: "./downloads/datasets/veri_resized/image_train/0121_c016_00055875_0.jpg"
        string_val: "./downloads/datasets/veri_resized/image_train/0121_c016_00055880_0.jpg"
        string_val: "./downloads/datasets/veri_resized/image_train/0121_c016_00055885_0.jpg"
        string_val: "./downloads/datasets/veri_resized/image_train/0121_c016_00055890_0.jpg"
        string_val: "./downloads/datasets/veri_resized/image_train/0157_c001_00059500_0.jpg"
        string_val: "./downloads/datasets/veri_resized/image_train/0157_c001_00059510_0.jpg"
        string_val: "./downloads/datasets/veri_resized/image_train/0157_c001_00059520_1.jpg"
        string_val: "./downloads/datasets/veri_resized/image_train/0157_c001_00059530_1.jpg"
        string_val: "./downloads/datasets/veri_resized/image_train/0157_c001_00059550_0.jpg"
        string_val: "./downloads/datasets/veri_resized/image_train/0157_c001_00059560_0.jpg"
        string_val: "./downloads/datasets/veri_resized/image_train/0157_c002_00060550_0.jpg"
        string_val: "./downloads/datasets/veri_resized/image_train/0157_c002_00060565_0.jpg"
        string_val: "./downloads/datasets/veri_resized/image_train/0157_c002_00060585_0.jpg"
        string_val: "./downloads/datasets/veri_resized/image_train/0157_c002_00060600_0.jpg"
        string_val: "./downloads/datasets/veri_resized/image_train/0157_c002_00060620_0.jpg"
        string_val: "./downloads/datasets/veri_resized/image_train/0157_c002_00060655_0.jpg"
        string_val: "./downloads/datasets/veri_resized/image_train/0157_c002_00068110_0.jpg"
        string_val: "./downloads/datasets/veri_resized/image_train/0157_c002_00068135_0.jpg"
        string_val: "./downloads/datasets/veri_resized/image_train/0157_c002_00068195_0.jpg"
        string_val: "./downloads/datasets/veri_resized/image_train/0157_c002_00068230_0.jpg"
        string_val: "./downloads/datasets/veri_resized/image_train/0157_c002_00068240_1.jpg"
        string_val: "./downloads/datasets/veri_resized/image_train/0157_c002_00068250_1.jpg"
        string_val: "./downloads/datasets/veri_resized/image_train/0157_c012_00057520_0.jpg"
        string_val: "./downloads/datasets/veri_resized/image_train/0157_c012_00057535_0.jpg"
        string_val: "./downloads/datasets/veri_resized/image_train/0157_c012_00057550_0.jpg"
        string_val: "./downloads/datasets/veri_resized/image_train/0157_c012_00057565_0.jpg"
        string_val: "./downloads/datasets/veri_resized/image_train/0157_c012_00057575_0.jpg"
        string_val: "./downloads/datasets/veri_resized/image_train/0157_c012_00057585_0.jpg"
        string_val: "./downloads/datasets/veri_resized/image_train/0157_c013_00057680_0.jpg"
        string_val: "./downloads/datasets/veri_resized/image_train/0157_c013_00057685_0.jpg"
        string_val: "./downloads/datasets/veri_resized/image_train/0157_c013_00057690_0.jpg"
        string_val: "./downloads/datasets/veri_resized/image_train/0157_c013_00057695_0.jpg"
        string_val: "./downloads/datasets/veri_resized/image_train/0157_c013_00057700_0.jpg"
        string_val: "./downloads/datasets/veri_resized/image_train/0157_c013_00057705_0.jpg"
        string_val: "./downloads/datasets/veri_resized/image_train/0157_c014_00055515_0.jpg"
        string_val: "./downloads/datasets/veri_resized/image_train/0157_c014_00055540_0.jpg"
        string_val: "./downloads/datasets/veri_resized/image_train/0157_c014_00055565_0.jpg"
        string_val: "./downloads/datasets/veri_resized/image_train/0157_c014_00055590_0.jpg"
        string_val: "./downloads/datasets/veri_resized/image_train/0157_c014_00055630_0.jpg"
        string_val: "./downloads/datasets/veri_resized/image_train/0157_c014_00055635_0.jpg"
        string_val: "./downloads/datasets/veri_resized/image_train/0157_c015_00055790_0.jpg"
        string_val: "./downloads/datasets/veri_resized/image_train/0157_c015_00055795_0.jpg"
        string_val: "./downloads/datasets/veri_resized/image_train/0157_c015_00055800_0.jpg"
        string_val: "./downloads/datasets/veri_resized/image_train/0157_c015_00055805_0.jpg"
        string_val: "./downloads/datasets/veri_resized/image_train/0157_c015_00055810_0.jpg"
        string_val: "./downloads/datasets/veri_resized/image_train/0157_c015_00055815_0.jpg"
        string_val: "./downloads/datasets/veri_resized/image_train/0157_c016_00055305_0.jpg"
        string_val: "./downloads/datasets/veri_resized/image_train/0157_c016_00055310_0.jpg"
        string_val: "./downloads/datasets/veri_resized/image_train/0157_c016_00055315_0.jpg"
        string_val: "./downloads/datasets/veri_resized/image_train/0157_c017_00056880_0.jpg"
        string_val: "./downloads/datasets/veri_resized/image_train/0157_c017_00056885_0.jpg"
        string_val: "./downloads/datasets/veri_resized/image_train/0157_c017_00056890_0.jpg"
        string_val: "./downloads/datasets/veri_resized/image_train/0157_c017_00056895_0.jpg"
        string_val: "./downloads/datasets/veri_resized/image_train/0157_c017_00056905_0.jpg"
        string_val: "./downloads/datasets/veri_resized/image_train/0157_c017_00056915_0.jpg"
        string_val: "./downloads/datasets/veri_resized/image_train/0157_c019_00056680_0.jpg"
        string_val: "./downloads/datasets/veri_resized/image_train/0157_c019_00056685_0.jpg"
        string_val: "./downloads/datasets/veri_resized/image_train/0157_c019_00056690_0.jpg"
        string_val: "./downloads/datasets/veri_resized/image_train/0157_c019_00056695_0.jpg"
        string_val: "./downloads/datasets/veri_resized/image_train/0157_c019_00056700_0.jpg"
        string_val: "./downloads/datasets/veri_resized/image_train/0157_c019_00056715_0.jpg"
        string_val: "./downloads/datasets/veri_resized/image_train/0170_c001_00045245_0.jpg"
        string_val: "./downloads/datasets/veri_resized/image_train/0170_c001_00045255_0.jpg"
        string_val: "./downloads/datasets/veri_resized/image_train/0170_c001_00045265_0.jpg"
        string_val: "./downloads/datasets/veri_resized/image_train/0170_c001_00045270_0.jpg"
        string_val: "./downloads/datasets/veri_resized/image_train/0170_c001_00045275_0.jpg"
        string_val: "./downloads/datasets/veri_resized/image_train/0170_c001_00045280_0.jpg"
        string_val: "./downloads/datasets/veri_resized/image_train/0170_c001_00055115_0.jpg"
        string_val: "./downloads/datasets/veri_resized/image_train/0170_c001_00055125_0.jpg"
        string_val: "./downloads/datasets/veri_resized/image_train/0170_c001_00055160_0.jpg"
        string_val: "./downloads/datasets/veri_resized/image_train/0170_c001_00055200_0.jpg"
        string_val: "./downloads/datasets/veri_resized/image_train/0170_c001_00055205_0.jpg"
        string_val: "./downloads/datasets/veri_resized/image_train/0170_c001_00055215_0.jpg"
        string_val: "./downloads/datasets/veri_resized/image_train/0170_c002_00045825_0.jpg"
        string_val: "./downloads/datasets/veri_resized/image_train/0170_c002_00045835_0.jpg"
        string_val: "./downloads/datasets/veri_resized/image_train/0170_c002_00045845_0.jpg"
        string_val: "./downloads/datasets/veri_resized/image_train/0170_c002_00045855_0.jpg"
        string_val: "./downloads/datasets/veri_resized/image_train/0170_c002_00045865_0.jpg"
        string_val: "./downloads/datasets/veri_resized/image_train/0170_c002_00045875_0.jpg"
        string_val: "./downloads/datasets/veri_resized/image_train/0170_c002_00053930_0.jpg"
        string_val: "./downloads/datasets/veri_resized/image_train/0170_c002_00053945_0.jpg"
        string_val: "./downloads/datasets/veri_resized/image_train/0170_c002_00053960_0.jpg"
        string_val: "./downloads/datasets/veri_resized/image_train/0170_c002_00053975_0.jpg"
        string_val: "./downloads/datasets/veri_resized/image_train/0170_c002_00053990_0.jpg"
        string_val: "./downloads/datasets/veri_resized/image_train/0170_c002_00054010_0.jpg"
        string_val: "./downloads/datasets/veri_resized/image_train/0170_c012_00044215_0.jpg"
        string_val: "./downloads/datasets/veri_resized/image_train/0170_c012_00044220_0.jpg"
        string_val: "./downloads/datasets/veri_resized/image_train/0170_c012_00044225_0.jpg"
        string_val: "./downloads/datasets/veri_resized/image_train/0170_c012_00044230_0.jpg"
        string_val: "./downloads/datasets/veri_resized/image_train/0170_c012_00044240_0.jpg"
        string_val: "./downloads/datasets/veri_resized/image_train/0170_c012_00044245_0.jpg"
        string_val: "./downloads/datasets/veri_resized/image_train/0170_c012_00055805_0.jpg"
        string_val: "./downloads/datasets/veri_resized/image_train/0170_c012_00055810_0.jpg"
        string_val: "./downloads/datasets/veri_resized/image_train/0170_c012_00055815_0.jpg"
        string_val: "./downloads/datasets/veri_resized/image_train/0170_c012_00055825_0.jpg"
        string_val: "./downloads/datasets/veri_resized/image_train/0170_c012_00055835_0.jpg"
        string_val: "./downloads/datasets/veri_resized/image_train/0170_c012_00055845_0.jpg"
        string_val: "./downloads/datasets/veri_resized/image_train/0170_c013_00055645_0.jpg"
        string_val: "./downloads/datasets/veri_resized/image_train/0170_c013_00055650_0.jpg"
        string_val: "./downloads/datasets/veri_resized/image_train/0170_c013_00055655_0.jpg"
        string_val: "./downloads/datasets/veri_resized/image_train/0170_c013_00055660_0.jpg"
        string_val: "./downloads/datasets/veri_resized/image_train/0170_c013_00055665_0.jpg"
        string_val: "./downloads/datasets/veri_resized/image_train/0170_c013_00055670_0.jpg"
        string_val: "./downloads/datasets/veri_resized/image_train/0170_c014_00042615_0.jpg"
        string_val: "./downloads/datasets/veri_resized/image_train/0170_c014_00042620_0.jpg"
        string_val: "./downloads/datasets/veri_resized/image_train/0170_c014_00042630_0.jpg"
        string_val: "./downloads/datasets/veri_resized/image_train/0170_c014_00042635_0.jpg"
        string_val: "./downloads/datasets/veri_resized/image_train/0170_c014_00042640_0.jpg"
        string_val: "./downloads/datasets/veri_resized/image_train/0170_c014_00042650_0.jpg"
        string_val: "./downloads/datasets/veri_resized/image_train/0170_c014_00057400_0.jpg"
        string_val: "./downloads/datasets/veri_resized/image_train/0170_c014_00057405_0.jpg"
        string_val: "./downloads/datasets/veri_resized/image_train/0170_c014_00057410_0.jpg"
        string_val: "./downloads/datasets/veri_resized/image_train/0170_c014_00057415_0.jpg"
        string_val: "./downloads/datasets/veri_resized/image_train/0170_c014_00057420_0.jpg"
        string_val: "./downloads/datasets/veri_resized/image_train/0170_c014_00057425_0.jpg"
        string_val: "./downloads/datasets/veri_resized/image_train/0170_c015_00042635_0.jpg"
        string_val: "./downloads/datasets/veri_resized/image_train/0170_c015_00042640_0.jpg"
        string_val: "./downloads/datasets/veri_resized/image_train/0170_c015_00042645_0.jpg"
        string_val: "./downloads/datasets/veri_resized/image_train/0170_c015_00042650_0.jpg"
        string_val: "./downloads/datasets/veri_resized/image_train/0170_c015_00042655_0.jpg"
        string_val: "./downloads/datasets/veri_resized/image_train/0170_c015_00042660_0.jpg"
        string_val: "./downloads/datasets/veri_resized/image_train/0170_c015_00057155_0.jpg"
        string_val: "./downloads/datasets/veri_resized/image_train/0170_c015_00057160_0.jpg"
        string_val: "./downloads/datasets/veri_resized/image_train/0170_c015_00057165_0.jpg"
        string_val: "./downloads/datasets/veri_resized/image_train/0170_c015_00057170_0.jpg"
        string_val: "./downloads/datasets/veri_resized/image_train/0170_c015_00057175_0.jpg"
        string_val: "./downloads/datasets/veri_resized/image_train/0170_c015_00057180_0.jpg"
        string_val: "./downloads/datasets/veri_resized/image_train/0170_c016_00057600_1.jpg"
        string_val: "./downloads/datasets/veri_resized/image_train/0170_c016_00057605_0.jpg"
        string_val: "./downloads/datasets/veri_resized/image_train/0170_c016_00057770_1.jpg"
        string_val: "./downloads/datasets/veri_resized/image_train/0170_c016_00057775_1.jpg"
        string_val: "./downloads/datasets/veri_resized/image_train/0170_c016_00057780_1.jpg"
        string_val: "./downloads/datasets/veri_resized/image_train/0170_c016_00057785_1.jpg"
        string_val: "./downloads/datasets/veri_resized/image_train/0170_c019_00056620_0.jpg"
        string_val: "./downloads/datasets/veri_resized/image_train/0170_c019_00056625_0.jpg"
        string_val: "./downloads/datasets/veri_resized/image_train/0170_c019_00056630_0.jpg"
        string_val: "./downloads/datasets/veri_resized/image_train/0170_c019_00056635_0.jpg"
        string_val: "./downloads/datasets/veri_resized/image_train/0170_c019_00056640_0.jpg"
        string_val: "./downloads/datasets/veri_resized/image_train/0170_c019_00056645_0.jpg"
        string_val: "./downloads/datasets/veri_resized/image_train/0187_c014_00051635_0.jpg"
        string_val: "./downloads/datasets/veri_resized/image_train/0187_c014_00051640_0.jpg"
        string_val: "./downloads/datasets/veri_resized/image_train/0187_c014_00051645_0.jpg"
        string_val: "./downloads/datasets/veri_resized/image_train/0187_c014_00051650_0.jpg"
        string_val: "./downloads/datasets/veri_resized/image_train/0187_c014_00051655_0.jpg"
        string_val: "./downloads/datasets/veri_resized/image_train/0187_c014_00051660_0.jpg"
        string_val: "./downloads/datasets/veri_resized/image_train/0187_c015_00051390_0.jpg"
        string_val: "./downloads/datasets/veri_resized/image_train/0187_c015_00051395_0.jpg"
        string_val: "./downloads/datasets/veri_resized/image_train/0187_c015_00051420_0.jpg"
        string_val: "./downloads/datasets/veri_resized/image_train/0187_c015_00051425_0.jpg"
        string_val: "./downloads/datasets/veri_resized/image_train/0187_c015_00051430_0.jpg"
        string_val: "./downloads/datasets/veri_resized/image_train/0187_c015_00051460_0.jpg"
        string_val: "./downloads/datasets/veri_resized/image_train/0187_c016_00052800_0.jpg"
        string_val: "./downloads/datasets/veri_resized/image_train/0187_c016_00052805_0.jpg"
        string_val: "./downloads/datasets/veri_resized/image_train/0187_c016_00052810_0.jpg"
        string_val: "./downloads/datasets/veri_resized/image_train/0187_c016_00052815_0.jpg"
        string_val: "./downloads/datasets/veri_resized/image_train/0187_c016_00052820_0.jpg"
        string_val: "./downloads/datasets/veri_resized/image_train/0187_c016_00052825_0.jpg"
        string_val: "./downloads/datasets/veri_resized/image_train/0187_c019_00050590_0.jpg"
        string_val: "./downloads/datasets/veri_resized/image_train/0187_c019_00050605_0.jpg"
        string_val: "./downloads/datasets/veri_resized/image_train/0187_c019_00050620_0.jpg"
        string_val: "./downloads/datasets/veri_resized/image_train/0187_c019_00050640_0.jpg"
        string_val: "./downloads/datasets/veri_resized/image_train/0187_c019_00050650_0.jpg"
        string_val: "./downloads/datasets/veri_resized/image_train/0187_c019_00050660_0.jpg"
        string_val: "./downloads/datasets/veri_resized/image_train/0223_c001_00083610_0.jpg"
        string_val: "./downloads/datasets/veri_resized/image_train/0223_c001_00083615_0.jpg"
        string_val: "./downloads/datasets/veri_resized/image_train/0223_c001_00083620_0.jpg"
        string_val: "./downloads/datasets/veri_resized/image_train/0223_c001_00083625_0.jpg"
        string_val: "./downloads/datasets/veri_resized/image_train/0223_c001_00083630_0.jpg"
        string_val: "./downloads/datasets/veri_resized/image_train/0223_c001_00083635_0.jpg"
        string_val: "./downloads/datasets/veri_resized/image_train/0223_c002_00084525_0.jpg"
        string_val: "./downloads/datasets/veri_resized/image_train/0223_c002_00084535_0.jpg"
        string_val: "./downloads/datasets/veri_resized/image_train/0223_c002_00084545_0.jpg"
        string_val: "./downloads/datasets/veri_resized/image_train/0223_c002_00084555_0.jpg"
        string_val: "./downloads/datasets/veri_resized/image_train/0223_c002_00084565_0.jpg"
        string_val: "./downloads/datasets/veri_resized/image_train/0223_c002_00084575_0.jpg"
        string_val: "./downloads/datasets/veri_resized/image_train/0223_c003_00086490_0.jpg"
        string_val: "./downloads/datasets/veri_resized/image_train/0223_c003_00086495_0.jpg"
        string_val: "./downloads/datasets/veri_resized/image_train/0223_c003_00086500_0.jpg"
        string_val: "./downloads/datasets/veri_resized/image_train/0223_c003_00086505_0.jpg"
        string_val: "./downloads/datasets/veri_resized/image_train/0223_c003_00086510_0.jpg"
        string_val: "./downloads/datasets/veri_resized/image_train/0223_c003_00086515_0.jpg"
        string_val: "./downloads/datasets/veri_resized/image_train/0223_c004_00086465_0.jpg"
        string_val: "./downloads/datasets/veri_resized/image_train/0223_c004_00086470_0.jpg"
        string_val: "./downloads/datasets/veri_resized/image_train/0223_c004_00086485_0.jpg"
        string_val: "./downloads/datasets/veri_resized/image_train/0223_c004_00086490_0.jpg"
        string_val: "./downloads/datasets/veri_resized/image_train/0223_c004_00086495_0.jpg"
        string_val: "./downloads/datasets/veri_resized/image_train/0223_c004_00086500_0.jpg"
        string_val: "./downloads/datasets/veri_resized/image_train/0223_c006_00085915_0.jpg"
        string_val: "./downloads/datasets/veri_resized/image_train/0223_c006_00085935_0.jpg"
        string_val: "./downloads/datasets/veri_resized/image_train/0223_c006_00085960_0.jpg"
        string_val: "./downloads/datasets/veri_resized/image_train/0223_c006_00085975_0.jpg"
        string_val: "./downloads/datasets/veri_resized/image_train/0223_c008_00086705_0.jpg"
        string_val: "./downloads/datasets/veri_resized/image_train/0223_c008_00086710_0.jpg"
        string_val: "./downloads/datasets/veri_resized/image_train/0223_c008_00086715_0.jpg"
        string_val: "./downloads/datasets/veri_resized/image_train/0223_c008_00086720_0.jpg"
        string_val: "./downloads/datasets/veri_resized/image_train/0223_c008_00086725_0.jpg"
        string_val: "./downloads/datasets/veri_resized/image_train/0223_c009_00086690_0.jpg"
        string_val: "./downloads/datasets/veri_resized/image_train/0223_c009_00086695_0.jpg"
        string_val: "./downloads/datasets/veri_resized/image_train/0223_c009_00086700_0.jpg"
        string_val: "./downloads/datasets/veri_resized/image_train/0223_c009_00086705_0.jpg"
        string_val: "./downloads/datasets/veri_resized/image_train/0223_c009_00086710_0.jpg"
        string_val: "./downloads/datasets/veri_resized/image_train/0223_c009_00086715_0.jpg"
        string_val: "./downloads/datasets/veri_resized/image_train/0223_c010_00086135_0.jpg"
        string_val: "./downloads/datasets/veri_resized/image_train/0223_c010_00086140_0.jpg"
        string_val: "./downloads/datasets/veri_resized/image_train/0223_c010_00086145_0.jpg"
        string_val: "./downloads/datasets/veri_resized/image_train/0223_c010_00086150_0.jpg"
        string_val: "./downloads/datasets/veri_resized/image_train/0223_c010_00086155_0.jpg"
        string_val: "./downloads/datasets/veri_resized/image_train/0223_c010_00086160_0.jpg"
        string_val: "./downloads/datasets/veri_resized/image_train/0223_c011_00085935_0.jpg"
        string_val: "./downloads/datasets/veri_resized/image_train/0223_c011_00085950_1.jpg"
        string_val: "./downloads/datasets/veri_resized/image_train/0223_c011_00085965_0.jpg"
        string_val: "./downloads/datasets/veri_resized/image_train/0223_c011_00085975_0.jpg"
        string_val: "./downloads/datasets/veri_resized/image_train/0223_c012_00083275_0.jpg"
        string_val: "./downloads/datasets/veri_resized/image_train/0223_c012_00083285_0.jpg"
        string_val: "./downloads/datasets/veri_resized/image_train/0223_c012_00083295_0.jpg"
        string_val: "./downloads/datasets/veri_resized/image_train/0223_c012_00083300_0.jpg"
        string_val: "./downloads/datasets/veri_resized/image_train/0223_c012_00083305_0.jpg"
        string_val: "./downloads/datasets/veri_resized/image_train/0223_c012_00083310_0.jpg"
        string_val: "./downloads/datasets/veri_resized/image_train/0223_c013_00083380_0.jpg"
        string_val: "./downloads/datasets/veri_resized/image_train/0223_c013_00083385_0.jpg"
        string_val: "./downloads/datasets/veri_resized/image_train/0223_c013_00083390_0.jpg"
        string_val: "./downloads/datasets/veri_resized/image_train/0223_c013_00083395_0.jpg"
        string_val: "./downloads/datasets/veri_resized/image_train/0223_c013_00083400_0.jpg"
        string_val: "./downloads/datasets/veri_resized/image_train/0223_c013_00083405_0.jpg"
        string_val: "./downloads/datasets/veri_resized/image_train/0223_c014_00081045_0.jpg"
        string_val: "./downloads/datasets/veri_resized/image_train/0223_c014_00081090_0.jpg"
        string_val: "./downloads/datasets/veri_resized/image_train/0223_c014_00081120_0.jpg"
        string_val: "./downloads/datasets/veri_resized/image_train/0223_c014_00081125_0.jpg"
        string_val: "./downloads/datasets/veri_resized/image_train/0223_c014_00081140_0.jpg"
        string_val: "./downloads/datasets/veri_resized/image_train/0223_c014_00081145_0.jpg"
        string_val: "./downloads/datasets/veri_resized/image_train/0223_c015_00081125_0.jpg"
        string_val: "./downloads/datasets/veri_resized/image_train/0223_c015_00081130_0.jpg"
        string_val: "./downloads/datasets/veri_resized/image_train/0223_c015_00081135_0.jpg"
        string_val: "./downloads/datasets/veri_resized/image_train/0223_c015_00081140_0.jpg"
        string_val: "./downloads/datasets/veri_resized/image_train/0223_c015_00081145_0.jpg"
        string_val: "./downloads/datasets/veri_resized/image_train/0223_c015_00081150_0.jpg"
        string_val: "./downloads/datasets/veri_resized/image_train/0223_c016_00080950_0.jpg"
        string_val: "./downloads/datasets/veri_resized/image_train/0223_c016_00080955_0.jpg"
        string_val: "./downloads/datasets/veri_resized/image_train/0223_c016_00080960_0.jpg"
        string_val: "./downloads/datasets/veri_resized/image_train/0223_c016_00080965_0.jpg"
        string_val: "./downloads/datasets/veri_resized/image_train/0223_c016_00080970_0.jpg"
        string_val: "./downloads/datasets/veri_resized/image_train/0223_c016_00080975_0.jpg"
        string_val: "./downloads/datasets/veri_resized/image_train/0223_c017_00082505_0.jpg"
        string_val: "./downloads/datasets/veri_resized/image_train/0223_c017_00082540_0.jpg"
        string_val: "./downloads/datasets/veri_resized/image_train/0223_c017_00082575_0.jpg"
        string_val: "./downloads/datasets/veri_resized/image_train/0223_c017_00082595_0.jpg"
        string_val: "./downloads/datasets/veri_resized/image_train/0223_c017_00082640_0.jpg"
        string_val: "./downloads/datasets/veri_resized/image_train/0223_c017_00082665_0.jpg"
        string_val: "./downloads/datasets/veri_resized/image_train/0223_c019_00082230_0.jpg"
        string_val: "./downloads/datasets/veri_resized/image_train/0223_c019_00082240_0.jpg"
        string_val: "./downloads/datasets/veri_resized/image_train/0223_c019_00082245_0.jpg"
        string_val: "./downloads/datasets/veri_resized/image_train/0223_c019_00082255_0.jpg"
        string_val: "./downloads/datasets/veri_resized/image_train/0223_c019_00082270_0.jpg"
        string_val: "./downloads/datasets/veri_resized/image_train/0223_c019_00082280_0.jpg"
        string_val: "./downloads/datasets/veri_resized/image_train/0226_c002_00075590_0.jpg"
        string_val: "./downloads/datasets/veri_resized/image_train/0226_c002_00075600_0.jpg"
        string_val: "./downloads/datasets/veri_resized/image_train/0226_c002_00075610_0.jpg"
        string_val: "./downloads/datasets/veri_resized/image_train/0226_c002_00075620_0.jpg"
        string_val: "./downloads/datasets/veri_resized/image_train/0226_c002_00075630_0.jpg"
        string_val: "./downloads/datasets/veri_resized/image_train/0226_c002_00075640_0.jpg"
        string_val: "./downloads/datasets/veri_resized/image_train/0226_c002_00081495_1.jpg"
        string_val: "./downloads/datasets/veri_resized/image_train/0226_c002_00081505_1.jpg"
        string_val: "./downloads/datasets/veri_resized/image_train/0226_c002_00081510_1.jpg"
        string_val: "./downloads/datasets/veri_resized/image_train/0226_c002_00081520_0.jpg"
        string_val: "./downloads/datasets/veri_resized/image_train/0226_c002_00081535_0.jpg"
        string_val: "./downloads/datasets/veri_resized/image_train/0226_c002_00081545_0.jpg"
        string_val: "./downloads/datasets/veri_resized/image_train/0226_c003_00077605_0.jpg"
        string_val: "./downloads/datasets/veri_resized/image_train/0226_c003_00077610_0.jpg"
        string_val: "./downloads/datasets/veri_resized/image_train/0226_c003_00077615_0.jpg"
        string_val: "./downloads/datasets/veri_resized/image_train/0226_c003_00077620_0.jpg"
        string_val: "./downloads/datasets/veri_resized/image_train/0226_c003_00077635_0.jpg"
        string_val: "./downloads/datasets/veri_resized/image_train/0226_c003_00077640_0.jpg"
        string_val: "./downloads/datasets/veri_resized/image_train/0226_c003_00079565_0.jpg"
        string_val: "./downloads/datasets/veri_resized/image_train/0226_c003_00079570_0.jpg"
        string_val: "./downloads/datasets/veri_resized/image_train/0226_c003_00079575_0.jpg"
        string_val: "./downloads/datasets/veri_resized/image_train/0226_c003_00079580_0.jpg"
        string_val: "./downloads/datasets/veri_resized/image_train/0226_c003_00079585_0.jpg"
        string_val: "./downloads/datasets/veri_resized/image_train/0226_c003_00079590_0.jpg"
        string_val: "./downloads/datasets/veri_resized/image_train/0226_c004_00077550_1.jpg"
        string_val: "./downloads/datasets/veri_resized/image_train/0226_c004_00077555_0.jpg"
        string_val: "./downloads/datasets/veri_resized/image_train/0226_c004_00077560_0.jpg"
        string_val: "./downloads/datasets/veri_resized/image_train/0226_c004_00077565_0.jpg"
        string_val: "./downloads/datasets/veri_resized/image_train/0226_c004_00077570_0.jpg"
        string_val: "./downloads/datasets/veri_resized/image_train/0226_c004_00077580_0.jpg"
        string_val: "./downloads/datasets/veri_resized/image_train/0226_c004_00079490_0.jpg"
        string_val: "./downloads/datasets/veri_resized/image_train/0226_c004_00079495_0.jpg"
        string_val: "./downloads/datasets/veri_resized/image_train/0226_c004_00079500_0.jpg"
        string_val: "./downloads/datasets/veri_resized/image_train/0226_c004_00079505_0.jpg"
        string_val: "./downloads/datasets/veri_resized/image_train/0226_c004_00079510_0.jpg"
        string_val: "./downloads/datasets/veri_resized/image_train/0226_c004_00079515_0.jpg"
        string_val: "./downloads/datasets/veri_resized/image_train/0226_c006_00076735_2.jpg"
        string_val: "./downloads/datasets/veri_resized/image_train/0226_c006_00076755_3.jpg"
        string_val: "./downloads/datasets/veri_resized/image_train/0226_c006_00076775_2.jpg"
        string_val: "./downloads/datasets/veri_resized/image_train/0226_c006_00076795_1.jpg"
        string_val: "./downloads/datasets/veri_resized/image_train/0226_c006_00076810_2.jpg"
        string_val: "./downloads/datasets/veri_resized/image_train/0226_c006_00076830_1.jpg"
        string_val: "./downloads/datasets/veri_resized/image_train/0226_c006_00080015_0.jpg"
        string_val: "./downloads/datasets/veri_resized/image_train/0226_c006_00080030_0.jpg"
        string_val: "./downloads/datasets/veri_resized/image_train/0226_c006_00080050_0.jpg"
        string_val: "./downloads/datasets/veri_resized/image_train/0226_c006_00080065_0.jpg"
        string_val: "./downloads/datasets/veri_resized/image_train/0226_c006_00080080_0.jpg"
        string_val: "./downloads/datasets/veri_resized/image_train/0226_c006_00080100_0.jpg"
        string_val: "./downloads/datasets/veri_resized/image_train/0226_c008_00077830_0.jpg"
        string_val: "./downloads/datasets/veri_resized/image_train/0226_c008_00077835_0.jpg"
        string_val: "./downloads/datasets/veri_resized/image_train/0226_c008_00077840_0.jpg"
        string_val: "./downloads/datasets/veri_resized/image_train/0226_c008_00077845_0.jpg"
        string_val: "./downloads/datasets/veri_resized/image_train/0226_c008_00077850_0.jpg"
        string_val: "./downloads/datasets/veri_resized/image_train/0226_c008_00077855_0.jpg"
        string_val: "./downloads/datasets/veri_resized/image_train/0226_c008_00079370_0.jpg"
        string_val: "./downloads/datasets/veri_resized/image_train/0226_c008_00079375_0.jpg"
        string_val: "./downloads/datasets/veri_resized/image_train/0226_c008_00079380_0.jpg"
        string_val: "./downloads/datasets/veri_resized/image_train/0226_c008_00079385_0.jpg"
        string_val: "./downloads/datasets/veri_resized/image_train/0226_c008_00079390_0.jpg"
        string_val: "./downloads/datasets/veri_resized/image_train/0226_c008_00079395_0.jpg"
        string_val: "./downloads/datasets/veri_resized/image_train/0226_c009_00077795_0.jpg"
        string_val: "./downloads/datasets/veri_resized/image_train/0226_c009_00077805_1.jpg"
        string_val: "./downloads/datasets/veri_resized/image_train/0226_c009_00077810_0.jpg"
        string_val: "./downloads/datasets/veri_resized/image_train/0226_c009_00077815_0.jpg"
        string_val: "./downloads/datasets/veri_resized/image_train/0226_c009_00077820_0.jpg"
        string_val: "./downloads/datasets/veri_resized/image_train/0226_c009_00077825_1.jpg"
        string_val: "./downloads/datasets/veri_resized/image_train/0226_c009_00079460_0.jpg"
        string_val: "./downloads/datasets/veri_resized/image_train/0226_c009_00079465_0.jpg"
        string_val: "./downloads/datasets/veri_resized/image_train/0226_c009_00079470_0.jpg"
        string_val: "./downloads/datasets/veri_resized/image_train/0226_c009_00079475_0.jpg"
        string_val: "./downloads/datasets/veri_resized/image_train/0226_c009_00079480_0.jpg"
        string_val: "./downloads/datasets/veri_resized/image_train/0226_c009_00079485_0.jpg"
        string_val: "./downloads/datasets/veri_resized/image_train/0226_c010_00076985_0.jpg"
        string_val: "./downloads/datasets/veri_resized/image_train/0226_c010_00076990_0.jpg"
        string_val: "./downloads/datasets/veri_resized/image_train/0226_c010_00076995_0.jpg"
        string_val: "./downloads/datasets/veri_resized/image_train/0226_c010_00077000_0.jpg"
        string_val: "./downloads/datasets/veri_resized/image_train/0226_c010_00077005_0.jpg"
        string_val: "./downloads/datasets/veri_resized/image_train/0226_c010_00077020_0.jpg"
        string_val: "./downloads/datasets/veri_resized/image_train/0226_c010_00080005_0.jpg"
        string_val: "./downloads/datasets/veri_resized/image_train/0226_c010_00080010_0.jpg"
        string_val: "./downloads/datasets/veri_resized/image_train/0226_c010_00080015_0.jpg"
        string_val: "./downloads/datasets/veri_resized/image_train/0226_c010_00080020_0.jpg"
        string_val: "./downloads/datasets/veri_resized/image_train/0226_c010_00080025_0.jpg"
        string_val: "./downloads/datasets/veri_resized/image_train/0226_c010_00080030_0.jpg"
        string_val: "./downloads/datasets/veri_resized/image_train/0226_c011_00076790_1.jpg"
        string_val: "./downloads/datasets/veri_resized/image_train/0226_c011_00076800_1.jpg"
        string_val: "./downloads/datasets/veri_resized/image_train/0226_c011_00076810_1.jpg"
        string_val: "./downloads/datasets/veri_resized/image_train/0226_c011_00076820_1.jpg"
        string_val: "./downloads/datasets/veri_resized/image_train/0226_c011_00076825_1.jpg"
        string_val: "./downloads/datasets/veri_resized/image_train/0226_c011_00076830_1.jpg"
        string_val: "./downloads/datasets/veri_resized/image_train/0226_c011_00080035_0.jpg"
        string_val: "./downloads/datasets/veri_resized/image_train/0226_c011_00080045_0.jpg"
        string_val: "./downloads/datasets/veri_resized/image_train/0226_c011_00080050_0.jpg"
        string_val: "./downloads/datasets/veri_resized/image_train/0226_c011_00080055_0.jpg"
        string_val: "./downloads/datasets/veri_resized/image_train/0226_c011_00080065_0.jpg"
        string_val: "./downloads/datasets/veri_resized/image_train/0226_c011_00080075_0.jpg"
        string_val: "./downloads/datasets/veri_resized/image_train/0230_c001_00076075_0.jpg"
        string_val: "./downloads/datasets/veri_resized/image_train/0230_c001_00076085_0.jpg"
        string_val: "./downloads/datasets/veri_resized/image_train/0230_c001_00076095_0.jpg"
        string_val: "./downloads/datasets/veri_resized/image_train/0230_c001_00076100_0.jpg"
        string_val: "./downloads/datasets/veri_resized/image_train/0230_c001_00076105_0.jpg"
        string_val: "./downloads/datasets/veri_resized/image_train/0230_c001_00076110_0.jpg"
        string_val: "./downloads/datasets/veri_resized/image_train/0230_c002_00076575_0.jpg"
        string_val: "./downloads/datasets/veri_resized/image_train/0230_c002_00076585_0.jpg"
        string_val: "./downloads/datasets/veri_resized/image_train/0230_c002_00076595_0.jpg"
        string_val: "./downloads/datasets/veri_resized/image_train/0230_c002_00076605_0.jpg"
        string_val: "./downloads/datasets/veri_resized/image_train/0230_c002_00076615_0.jpg"
        string_val: "./downloads/datasets/veri_resized/image_train/0230_c002_00076625_0.jpg"
        string_val: "./downloads/datasets/veri_resized/image_train/0230_c012_00075545_0.jpg"
        string_val: "./downloads/datasets/veri_resized/image_train/0230_c012_00075555_0.jpg"
        string_val: "./downloads/datasets/veri_resized/image_train/0230_c012_00075565_0.jpg"
        string_val: "./downloads/datasets/veri_resized/image_train/0230_c012_00075575_0.jpg"
        string_val: "./downloads/datasets/veri_resized/image_train/0230_c012_00075585_0.jpg"
        string_val: "./downloads/datasets/veri_resized/image_train/0230_c012_00075595_0.jpg"
        string_val: "./downloads/datasets/veri_resized/image_train/0230_c013_00075660_0.jpg"
        string_val: "./downloads/datasets/veri_resized/image_train/0230_c013_00075665_0.jpg"
        string_val: "./downloads/datasets/veri_resized/image_train/0230_c013_00075670_0.jpg"
        string_val: "./downloads/datasets/veri_resized/image_train/0230_c013_00075675_0.jpg"
        string_val: "./downloads/datasets/veri_resized/image_train/0230_c013_00075680_0.jpg"
        string_val: "./downloads/datasets/veri_resized/image_train/0230_c013_00075685_0.jpg"
        string_val: "./downloads/datasets/veri_resized/image_train/0230_c014_00074015_0.jpg"
        string_val: "./downloads/datasets/veri_resized/image_train/0230_c014_00074020_0.jpg"
        string_val: "./downloads/datasets/veri_resized/image_train/0230_c014_00074025_0.jpg"
        string_val: "./downloads/datasets/veri_resized/image_train/0230_c014_00074030_0.jpg"
        string_val: "./downloads/datasets/veri_resized/image_train/0230_c014_00074035_0.jpg"
        string_val: "./downloads/datasets/veri_resized/image_train/0230_c014_00074040_0.jpg"
        string_val: "./downloads/datasets/veri_resized/image_train/0230_c015_00074060_0.jpg"
        string_val: "./downloads/datasets/veri_resized/image_train/0230_c015_00074065_0.jpg"
        string_val: "./downloads/datasets/veri_resized/image_train/0230_c015_00074070_0.jpg"
        string_val: "./downloads/datasets/veri_resized/image_train/0230_c015_00074075_0.jpg"
        string_val: "./downloads/datasets/veri_resized/image_train/0230_c015_00074080_0.jpg"
        string_val: "./downloads/datasets/veri_resized/image_train/0230_c015_00074085_0.jpg"
        string_val: "./downloads/datasets/veri_resized/image_train/0230_c016_00073615_0.jpg"
        string_val: "./downloads/datasets/veri_resized/image_train/0230_c016_00073620_0.jpg"
        string_val: "./downloads/datasets/veri_resized/image_train/0230_c016_00073625_0.jpg"
        string_val: "./downloads/datasets/veri_resized/image_train/0230_c016_00073630_0.jpg"
        string_val: "./downloads/datasets/veri_resized/image_train/0230_c016_00073635_0.jpg"
        string_val: "./downloads/datasets/veri_resized/image_train/0230_c016_00073640_0.jpg"
        string_val: "./downloads/datasets/veri_resized/image_train/0230_c017_00075000_0.jpg"
        string_val: "./downloads/datasets/veri_resized/image_train/0230_c017_00075010_0.jpg"
        string_val: "./downloads/datasets/veri_resized/image_train/0230_c017_00075025_0.jpg"
        string_val: "./downloads/datasets/veri_resized/image_train/0230_c017_00075030_0.jpg"
        string_val: "./downloads/datasets/veri_resized/image_train/0230_c017_00075035_0.jpg"
        string_val: "./downloads/datasets/veri_resized/image_train/0230_c017_00075050_0.jpg"
        string_val: "./downloads/datasets/veri_resized/image_train/0243_c001_00033755_0.jpg"
        string_val: "./downloads/datasets/veri_resized/image_train/0243_c001_00033765_0.jpg"
        string_val: "./downloads/datasets/veri_resized/image_train/0243_c001_00033770_1.jpg"
        string_val: "./downloads/datasets/veri_resized/image_train/0243_c001_00033780_0.jpg"
        string_val: "./downloads/datasets/veri_resized/image_train/0243_c001_00033790_0.jpg"
        string_val: "./downloads/datasets/veri_resized/image_train/0243_c002_00034250_0.jpg"
        string_val: "./downloads/datasets/veri_resized/image_train/0243_c002_00034260_0.jpg"
        string_val: "./downloads/datasets/veri_resized/image_train/0243_c002_00034270_0.jpg"
        string_val: "./downloads/datasets/veri_resized/image_train/0243_c002_00034280_0.jpg"
        string_val: "./downloads/datasets/veri_resized/image_train/0243_c002_00034290_0.jpg"
        string_val: "./downloads/datasets/veri_resized/image_train/0243_c002_00034330_2.jpg"
        string_val: "./downloads/datasets/veri_resized/image_train/0243_c006_00036085_1.jpg"
        string_val: "./downloads/datasets/veri_resized/image_train/0243_c006_00036115_0.jpg"
        string_val: "./downloads/datasets/veri_resized/image_train/0243_c006_00036135_0.jpg"
        string_val: "./downloads/datasets/veri_resized/image_train/0243_c006_00036175_0.jpg"
        string_val: "./downloads/datasets/veri_resized/image_train/0243_c006_00036190_0.jpg"
        string_val: "./downloads/datasets/veri_resized/image_train/0243_c006_00036205_0.jpg"
        string_val: "./downloads/datasets/veri_resized/image_train/0243_c010_00036325_1.jpg"
        string_val: "./downloads/datasets/veri_resized/image_train/0243_c010_00036330_0.jpg"
        string_val: "./downloads/datasets/veri_resized/image_train/0243_c010_00036335_1.jpg"
        string_val: "./downloads/datasets/veri_resized/image_train/0243_c010_00036340_0.jpg"
        string_val: "./downloads/datasets/veri_resized/image_train/0243_c010_00036345_1.jpg"
        string_val: "./downloads/datasets/veri_resized/image_train/0243_c010_00036350_0.jpg"
        string_val: "./downloads/datasets/veri_resized/image_train/0243_c011_00036030_0.jpg"
        string_val: "./downloads/datasets/veri_resized/image_train/0243_c011_00036060_0.jpg"
        string_val: "./downloads/datasets/veri_resized/image_train/0243_c011_00036075_0.jpg"
        string_val: "./downloads/datasets/veri_resized/image_train/0243_c011_00036090_0.jpg"
        string_val: "./downloads/datasets/veri_resized/image_train/0243_c011_00036105_0.jpg"
        string_val: "./downloads/datasets/veri_resized/image_train/0243_c011_00036120_1.jpg"
        string_val: "./downloads/datasets/veri_resized/image_train/0243_c012_00033320_0.jpg"
        string_val: "./downloads/datasets/veri_resized/image_train/0243_c012_00033335_0.jpg"
        string_val: "./downloads/datasets/veri_resized/image_train/0243_c012_00033345_0.jpg"
        string_val: "./downloads/datasets/veri_resized/image_train/0243_c012_00033355_0.jpg"
        string_val: "./downloads/datasets/veri_resized/image_train/0243_c012_00033365_0.jpg"
        string_val: "./downloads/datasets/veri_resized/image_train/0243_c012_00033370_0.jpg"
        string_val: "./downloads/datasets/veri_resized/image_train/0243_c013_00033415_0.jpg"
        string_val: "./downloads/datasets/veri_resized/image_train/0243_c013_00033430_0.jpg"
        string_val: "./downloads/datasets/veri_resized/image_train/0243_c013_00033440_0.jpg"
        string_val: "./downloads/datasets/veri_resized/image_train/0243_c013_00033445_0.jpg"
        string_val: "./downloads/datasets/veri_resized/image_train/0243_c013_00033460_0.jpg"
        string_val: "./downloads/datasets/veri_resized/image_train/0243_c013_00033475_0.jpg"
        string_val: "./downloads/datasets/veri_resized/image_train/0243_c014_00031580_0.jpg"
        string_val: "./downloads/datasets/veri_resized/image_train/0243_c014_00031585_0.jpg"
        string_val: "./downloads/datasets/veri_resized/image_train/0243_c014_00031590_0.jpg"
        string_val: "./downloads/datasets/veri_resized/image_train/0243_c014_00031595_0.jpg"
        string_val: "./downloads/datasets/veri_resized/image_train/0243_c014_00031600_1.jpg"
        string_val: "./downloads/datasets/veri_resized/image_train/0243_c014_00031620_1.jpg"
        string_val: "./downloads/datasets/veri_resized/image_train/0243_c015_00031635_0.jpg"
        string_val: "./downloads/datasets/veri_resized/image_train/0243_c015_00031640_0.jpg"
        string_val: "./downloads/datasets/veri_resized/image_train/0243_c015_00031655_1.jpg"
        string_val: "./downloads/datasets/veri_resized/image_train/0243_c015_00031670_0.jpg"
        string_val: "./downloads/datasets/veri_resized/image_train/0243_c016_00031295_0.jpg"
        string_val: "./downloads/datasets/veri_resized/image_train/0243_c016_00031300_0.jpg"
        string_val: "./downloads/datasets/veri_resized/image_train/0243_c016_00031305_0.jpg"
        string_val: "./downloads/datasets/veri_resized/image_train/0243_c016_00031310_0.jpg"
        string_val: "./downloads/datasets/veri_resized/image_train/0243_c016_00031315_0.jpg"
        string_val: "./downloads/datasets/veri_resized/image_train/0243_c016_00031320_0.jpg"
        string_val: "./downloads/datasets/veri_resized/image_train/0243_c017_00032680_0.jpg"
        string_val: "./downloads/datasets/veri_resized/image_train/0243_c017_00032695_0.jpg"
        string_val: "./downloads/datasets/veri_resized/image_train/0243_c017_00032705_0.jpg"
        string_val: "./downloads/datasets/veri_resized/image_train/0243_c017_00032715_0.jpg"
        string_val: "./downloads/datasets/veri_resized/image_train/0243_c017_00032725_0.jpg"
        string_val: "./downloads/datasets/veri_resized/image_train/0243_c017_00032740_0.jpg"
        string_val: "./downloads/datasets/veri_resized/image_train/0243_c019_00032455_0.jpg"
        string_val: "./downloads/datasets/veri_resized/image_train/0243_c019_00032460_0.jpg"
        string_val: "./downloads/datasets/veri_resized/image_train/0243_c019_00032465_0.jpg"
        string_val: "./downloads/datasets/veri_resized/image_train/0243_c019_00032475_0.jpg"
        string_val: "./downloads/datasets/veri_resized/image_train/0243_c019_00032485_0.jpg"
        string_val: "./downloads/datasets/veri_resized/image_train/0243_c019_00032490_0.jpg"
        string_val: "./downloads/datasets/veri_resized/image_train/0250_c012_00080200_0.jpg"
        string_val: "./downloads/datasets/veri_resized/image_train/0250_c012_00080210_0.jpg"
        string_val: "./downloads/datasets/veri_resized/image_train/0250_c012_00080220_0.jpg"
        string_val: "./downloads/datasets/veri_resized/image_train/0250_c012_00080230_0.jpg"
        string_val: "./downloads/datasets/veri_resized/image_train/0250_c012_00080240_0.jpg"
        string_val: "./downloads/datasets/veri_resized/image_train/0250_c012_00080250_0.jpg"
        string_val: "./downloads/datasets/veri_resized/image_train/0250_c012_00080255_0.jpg"
        string_val: "./downloads/datasets/veri_resized/image_train/0250_c012_00080265_0.jpg"
        string_val: "./downloads/datasets/veri_resized/image_train/0250_c013_00079985_0.jpg"
        string_val: "./downloads/datasets/veri_resized/image_train/0250_c013_00079990_0.jpg"
        string_val: "./downloads/datasets/veri_resized/image_train/0250_c013_00079995_0.jpg"
        string_val: "./downloads/datasets/veri_resized/image_train/0250_c013_00080000_0.jpg"
        string_val: "./downloads/datasets/veri_resized/image_train/0250_c013_00080005_0.jpg"
        string_val: "./downloads/datasets/veri_resized/image_train/0250_c013_00080010_0.jpg"
        string_val: "./downloads/datasets/veri_resized/image_train/0250_c014_00082135_0.jpg"
        string_val: "./downloads/datasets/veri_resized/image_train/0250_c014_00082140_0.jpg"
        string_val: "./downloads/datasets/veri_resized/image_train/0250_c014_00082145_0.jpg"
        string_val: "./downloads/datasets/veri_resized/image_train/0250_c014_00082150_0.jpg"
        string_val: "./downloads/datasets/veri_resized/image_train/0250_c014_00082155_0.jpg"
        string_val: "./downloads/datasets/veri_resized/image_train/0250_c014_00082160_0.jpg"
        string_val: "./downloads/datasets/veri_resized/image_train/0250_c015_00081925_0.jpg"
        string_val: "./downloads/datasets/veri_resized/image_train/0250_c015_00081930_0.jpg"
        string_val: "./downloads/datasets/veri_resized/image_train/0250_c015_00081935_0.jpg"
        string_val: "./downloads/datasets/veri_resized/image_train/0250_c015_00081940_0.jpg"
        string_val: "./downloads/datasets/veri_resized/image_train/0250_c015_00081945_0.jpg"
        string_val: "./downloads/datasets/veri_resized/image_train/0250_c015_00081960_0.jpg"
        string_val: "./downloads/datasets/veri_resized/image_train/0250_c016_00082485_0.jpg"
        string_val: "./downloads/datasets/veri_resized/image_train/0250_c016_00082490_0.jpg"
        string_val: "./downloads/datasets/veri_resized/image_train/0250_c016_00082495_0.jpg"
        string_val: "./downloads/datasets/veri_resized/image_train/0250_c016_00082500_0.jpg"
        string_val: "./downloads/datasets/veri_resized/image_train/0250_c016_00082505_0.jpg"
        string_val: "./downloads/datasets/veri_resized/image_train/0250_c016_00082510_0.jpg"
        string_val: "./downloads/datasets/veri_resized/image_train/0250_c017_00080840_0.jpg"
        string_val: "./downloads/datasets/veri_resized/image_train/0250_c017_00080845_0.jpg"
        string_val: "./downloads/datasets/veri_resized/image_train/0250_c017_00080850_0.jpg"
        string_val: "./downloads/datasets/veri_resized/image_train/0250_c017_00080860_0.jpg"
        string_val: "./downloads/datasets/veri_resized/image_train/0250_c017_00080865_0.jpg"
        string_val: "./downloads/datasets/veri_resized/image_train/0250_c017_00080875_0.jpg"
        string_val: "./downloads/datasets/veri_resized/image_train/0250_c019_00080965_0.jpg"
        string_val: "./downloads/datasets/veri_resized/image_train/0250_c019_00081000_0.jpg"
        string_val: "./downloads/datasets/veri_resized/image_train/0250_c019_00081010_0.jpg"
        string_val: "./downloads/datasets/veri_resized/image_train/0250_c019_00081020_0.jpg"
        string_val: "./downloads/datasets/veri_resized/image_train/0250_c019_00081030_0.jpg"
        string_val: "./downloads/datasets/veri_resized/image_train/0250_c019_00081040_0.jpg"
        string_val: "./downloads/datasets/veri_resized/image_train/0256_c003_00040405_0.jpg"
        string_val: "./downloads/datasets/veri_resized/image_train/0256_c003_00040415_0.jpg"
        string_val: "./downloads/datasets/veri_resized/image_train/0256_c003_00040425_0.jpg"
        string_val: "./downloads/datasets/veri_resized/image_train/0256_c003_00040435_0.jpg"
        string_val: "./downloads/datasets/veri_resized/image_train/0256_c003_00040605_0.jpg"
        string_val: "./downloads/datasets/veri_resized/image_train/0256_c003_00040670_0.jpg"
        string_val: "./downloads/datasets/veri_resized/image_train/0256_c003_00048245_0.jpg"
        string_val: "./downloads/datasets/veri_resized/image_train/0256_c003_00048255_0.jpg"
        string_val: "./downloads/datasets/veri_resized/image_train/0256_c003_00048275_0.jpg"
        string_val: "./downloads/datasets/veri_resized/image_train/0256_c003_00048285_0.jpg"
        string_val: "./downloads/datasets/veri_resized/image_train/0256_c003_00048320_0.jpg"
        string_val: "./downloads/datasets/veri_resized/image_train/0256_c003_00048415_0.jpg"
        string_val: "./downloads/datasets/veri_resized/image_train/0256_c004_00040350_0.jpg"
        string_val: "./downloads/datasets/veri_resized/image_train/0256_c004_00040365_0.jpg"
        string_val: "./downloads/datasets/veri_resized/image_train/0256_c004_00040380_0.jpg"
        string_val: "./downloads/datasets/veri_resized/image_train/0256_c004_00040445_0.jpg"
        string_val: "./downloads/datasets/veri_resized/image_train/0256_c004_00040460_0.jpg"
        string_val: "./downloads/datasets/veri_resized/image_train/0256_c004_00040475_0.jpg"
        string_val: "./downloads/datasets/veri_resized/image_train/0256_c004_00048175_0.jpg"
        string_val: "./downloads/datasets/veri_resized/image_train/0256_c004_00048195_0.jpg"
        string_val: "./downloads/datasets/veri_resized/image_train/0256_c004_00048210_0.jpg"
        string_val: "./downloads/datasets/veri_resized/image_train/0256_c004_00048240_0.jpg"
        string_val: "./downloads/datasets/veri_resized/image_train/0256_c004_00048275_0.jpg"
        string_val: "./downloads/datasets/veri_resized/image_train/0256_c004_00048310_0.jpg"
        string_val: "./downloads/datasets/veri_resized/image_train/0256_c006_00041410_1.jpg"
        string_val: "./downloads/datasets/veri_resized/image_train/0256_c006_00041420_1.jpg"
        string_val: "./downloads/datasets/veri_resized/image_train/0256_c006_00041435_0.jpg"
        string_val: "./downloads/datasets/veri_resized/image_train/0256_c006_00041460_0.jpg"
        string_val: "./downloads/datasets/veri_resized/image_train/0256_c006_00041480_0.jpg"
        string_val: "./downloads/datasets/veri_resized/image_train/0256_c006_00041515_0.jpg"
        string_val: "./downloads/datasets/veri_resized/image_train/0256_c006_00047425_1.jpg"
        string_val: "./downloads/datasets/veri_resized/image_train/0256_c006_00047470_1.jpg"
        string_val: "./downloads/datasets/veri_resized/image_train/0256_c006_00047505_1.jpg"
        string_val: "./downloads/datasets/veri_resized/image_train/0256_c006_00047525_1.jpg"
        string_val: "./downloads/datasets/veri_resized/image_train/0256_c006_00047550_0.jpg"
        string_val: "./downloads/datasets/veri_resized/image_train/0256_c006_00047565_0.jpg"
        string_val: "./downloads/datasets/veri_resized/image_train/0256_c008_00039815_0.jpg"
        string_val: "./downloads/datasets/veri_resized/image_train/0256_c008_00039835_0.jpg"
        string_val: "./downloads/datasets/veri_resized/image_train/0256_c008_00039855_0.jpg"
        string_val: "./downloads/datasets/veri_resized/image_train/0256_c008_00039875_0.jpg"
        string_val: "./downloads/datasets/veri_resized/image_train/0256_c008_00039895_0.jpg"
        string_val: "./downloads/datasets/veri_resized/image_train/0256_c009_00039960_0.jpg"
        string_val: "./downloads/datasets/veri_resized/image_train/0256_c009_00039990_0.jpg"
        string_val: "./downloads/datasets/veri_resized/image_train/0256_c009_00040010_0.jpg"
        string_val: "./downloads/datasets/veri_resized/image_train/0256_c009_00040025_0.jpg"
        string_val: "./downloads/datasets/veri_resized/image_train/0256_c009_00040050_0.jpg"
        string_val: "./downloads/datasets/veri_resized/image_train/0256_c009_00040060_0.jpg"
        string_val: "./downloads/datasets/veri_resized/image_train/0256_c010_00041320_0.jpg"
        string_val: "./downloads/datasets/veri_resized/image_train/0256_c010_00041325_0.jpg"
        string_val: "./downloads/datasets/veri_resized/image_train/0256_c010_00041330_0.jpg"
        string_val: "./downloads/datasets/veri_resized/image_train/0256_c010_00041335_0.jpg"
        string_val: "./downloads/datasets/veri_resized/image_train/0256_c010_00041340_0.jpg"
        string_val: "./downloads/datasets/veri_resized/image_train/0256_c010_00041345_0.jpg"
        string_val: "./downloads/datasets/veri_resized/image_train/0256_c010_00047695_0.jpg"
        string_val: "./downloads/datasets/veri_resized/image_train/0256_c010_00047700_0.jpg"
        string_val: "./downloads/datasets/veri_resized/image_train/0256_c010_00047705_0.jpg"
        string_val: "./downloads/datasets/veri_resized/image_train/0256_c010_00047710_0.jpg"
        string_val: "./downloads/datasets/veri_resized/image_train/0256_c010_00047715_0.jpg"
        string_val: "./downloads/datasets/veri_resized/image_train/0256_c010_00047720_0.jpg"
        string_val: "./downloads/datasets/veri_resized/image_train/0256_c011_00041360_1.jpg"
        string_val: "./downloads/datasets/veri_resized/image_train/0256_c011_00041370_1.jpg"
        string_val: "./downloads/datasets/veri_resized/image_train/0256_c011_00041380_0.jpg"
        string_val: "./downloads/datasets/veri_resized/image_train/0256_c011_00041390_0.jpg"
        string_val: "./downloads/datasets/veri_resized/image_train/0256_c011_00041400_0.jpg"
        string_val: "./downloads/datasets/veri_resized/image_train/0256_c011_00041410_0.jpg"
        string_val: "./downloads/datasets/veri_resized/image_train/0256_c011_00047440_1.jpg"
        string_val: "./downloads/datasets/veri_resized/image_train/0256_c011_00047485_0.jpg"
        string_val: "./downloads/datasets/veri_resized/image_train/0256_c011_00047510_0.jpg"
        string_val: "./downloads/datasets/veri_resized/image_train/0256_c011_00047520_0.jpg"
        string_val: "./downloads/datasets/veri_resized/image_train/0256_c011_00047535_0.jpg"
        string_val: "./downloads/datasets/veri_resized/image_train/0256_c011_00047545_0.jpg"
        string_val: "./downloads/datasets/veri_resized/image_train/0258_c002_00010555_0.jpg"
        string_val: "./downloads/datasets/veri_resized/image_train/0258_c002_00010580_0.jpg"
        string_val: "./downloads/datasets/veri_resized/image_train/0258_c002_00010600_0.jpg"
        string_val: "./downloads/datasets/veri_resized/image_train/0258_c002_00010620_0.jpg"
        string_val: "./downloads/datasets/veri_resized/image_train/0258_c002_00010640_0.jpg"
        string_val: "./downloads/datasets/veri_resized/image_train/0258_c002_00010660_0.jpg"
        string_val: "./downloads/datasets/veri_resized/image_train/0258_c003_00008365_1.jpg"
        string_val: "./downloads/datasets/veri_resized/image_train/0258_c003_00008375_1.jpg"
        string_val: "./downloads/datasets/veri_resized/image_train/0258_c003_00008385_1.jpg"
        string_val: "./downloads/datasets/veri_resized/image_train/0258_c003_00008395_1.jpg"
        string_val: "./downloads/datasets/veri_resized/image_train/0258_c003_00008445_0.jpg"
        string_val: "./downloads/datasets/veri_resized/image_train/0258_c004_00008250_0.jpg"
        string_val: "./downloads/datasets/veri_resized/image_train/0258_c004_00008255_0.jpg"
        string_val: "./downloads/datasets/veri_resized/image_train/0258_c004_00008260_0.jpg"
        string_val: "./downloads/datasets/veri_resized/image_train/0258_c004_00008265_0.jpg"
        string_val: "./downloads/datasets/veri_resized/image_train/0258_c004_00008270_0.jpg"
        string_val: "./downloads/datasets/veri_resized/image_train/0258_c004_00008275_0.jpg"
        string_val: "./downloads/datasets/veri_resized/image_train/0258_c006_00009305_0.jpg"
        string_val: "./downloads/datasets/veri_resized/image_train/0258_c006_00009335_0.jpg"
        string_val: "./downloads/datasets/veri_resized/image_train/0258_c006_00009365_0.jpg"
        string_val: "./downloads/datasets/veri_resized/image_train/0258_c006_00009835_2.jpg"
        string_val: "./downloads/datasets/veri_resized/image_train/0258_c006_00009855_2.jpg"
        string_val: "./downloads/datasets/veri_resized/image_train/0258_c006_00009880_2.jpg"
        string_val: "./downloads/datasets/veri_resized/image_train/0258_c008_00008030_1.jpg"
        string_val: "./downloads/datasets/veri_resized/image_train/0258_c008_00008040_0.jpg"
        string_val: "./downloads/datasets/veri_resized/image_train/0258_c008_00008050_0.jpg"
        string_val: "./downloads/datasets/veri_resized/image_train/0258_c008_00008060_0.jpg"
        string_val: "./downloads/datasets/veri_resized/image_train/0258_c009_00008075_0.jpg"
        string_val: "./downloads/datasets/veri_resized/image_train/0258_c009_00008080_0.jpg"
        string_val: "./downloads/datasets/veri_resized/image_train/0258_c009_00008085_0.jpg"
        string_val: "./downloads/datasets/veri_resized/image_train/0258_c009_00008090_0.jpg"
        string_val: "./downloads/datasets/veri_resized/image_train/0258_c009_00008095_0.jpg"
        string_val: "./downloads/datasets/veri_resized/image_train/0258_c009_00008100_0.jpg"
        string_val: "./downloads/datasets/veri_resized/image_train/0258_c010_00009115_0.jpg"
        string_val: "./downloads/datasets/veri_resized/image_train/0258_c010_00009120_0.jpg"
        string_val: "./downloads/datasets/veri_resized/image_train/0258_c010_00009125_0.jpg"
        string_val: "./downloads/datasets/veri_resized/image_train/0258_c010_00009130_0.jpg"
        string_val: "./downloads/datasets/veri_resized/image_train/0258_c010_00009135_0.jpg"
        string_val: "./downloads/datasets/veri_resized/image_train/0258_c010_00009140_0.jpg"
        string_val: "./downloads/datasets/veri_resized/image_train/0258_c011_00009255_0.jpg"
        string_val: "./downloads/datasets/veri_resized/image_train/0258_c011_00009265_0.jpg"
        string_val: "./downloads/datasets/veri_resized/image_train/0258_c011_00009275_0.jpg"
        string_val: "./downloads/datasets/veri_resized/image_train/0258_c011_00009280_0.jpg"
        string_val: "./downloads/datasets/veri_resized/image_train/0258_c011_00009285_0.jpg"
        string_val: "./downloads/datasets/veri_resized/image_train/0258_c011_00009350_0.jpg"
        string_val: "./downloads/datasets/veri_resized/image_train/0270_c001_00004805_0.jpg"
        string_val: "./downloads/datasets/veri_resized/image_train/0270_c001_00004810_0.jpg"
        string_val: "./downloads/datasets/veri_resized/image_train/0270_c001_00004815_0.jpg"
        string_val: "./downloads/datasets/veri_resized/image_train/0270_c001_00004820_0.jpg"
        string_val: "./downloads/datasets/veri_resized/image_train/0270_c001_00004825_0.jpg"
        string_val: "./downloads/datasets/veri_resized/image_train/0270_c001_00004830_0.jpg"
        string_val: "./downloads/datasets/veri_resized/image_train/0270_c001_00064335_0.jpg"
        string_val: "./downloads/datasets/veri_resized/image_train/0270_c001_00064345_0.jpg"
        string_val: "./downloads/datasets/veri_resized/image_train/0270_c001_00064355_0.jpg"
        string_val: "./downloads/datasets/veri_resized/image_train/0270_c001_00064365_0.jpg"
        string_val: "./downloads/datasets/veri_resized/image_train/0270_c001_00064370_0.jpg"
        string_val: "./downloads/datasets/veri_resized/image_train/0270_c001_00064375_0.jpg"
        string_val: "./downloads/datasets/veri_resized/image_train/0270_c001_00083235_0.jpg"
        string_val: "./downloads/datasets/veri_resized/image_train/0270_c001_00083240_0.jpg"
        string_val: "./downloads/datasets/veri_resized/image_train/0270_c001_00083245_0.jpg"
        string_val: "./downloads/datasets/veri_resized/image_train/0270_c001_00083250_0.jpg"
        string_val: "./downloads/datasets/veri_resized/image_train/0270_c001_00083255_0.jpg"
        string_val: "./downloads/datasets/veri_resized/image_train/0270_c001_00083260_0.jpg"
        string_val: "./downloads/datasets/veri_resized/image_train/0270_c002_00003690_0.jpg"
        string_val: "./downloads/datasets/veri_resized/image_train/0270_c002_00003700_0.jpg"
        string_val: "./downloads/datasets/veri_resized/image_train/0270_c002_00003715_0.jpg"
        string_val: "./downloads/datasets/veri_resized/image_train/0270_c002_00003730_0.jpg"
        string_val: "./downloads/datasets/veri_resized/image_train/0270_c002_00003745_0.jpg"
        string_val: "./downloads/datasets/veri_resized/image_train/0270_c002_00003760_0.jpg"
        string_val: "./downloads/datasets/veri_resized/image_train/0270_c002_00065385_0.jpg"
        string_val: "./downloads/datasets/veri_resized/image_train/0270_c002_00065395_0.jpg"
        string_val: "./downloads/datasets/veri_resized/image_train/0270_c002_00065405_0.jpg"
        string_val: "./downloads/datasets/veri_resized/image_train/0270_c002_00065415_0.jpg"
        string_val: "./downloads/datasets/veri_resized/image_train/0270_c002_00065425_0.jpg"
        string_val: "./downloads/datasets/veri_resized/image_train/0270_c002_00065465_0.jpg"
        string_val: "./downloads/datasets/veri_resized/image_train/0270_c002_00081705_0.jpg"
        string_val: "./downloads/datasets/veri_resized/image_train/0270_c002_00081725_0.jpg"
        string_val: "./downloads/datasets/veri_resized/image_train/0270_c002_00081745_0.jpg"
        string_val: "./downloads/datasets/veri_resized/image_train/0270_c002_00081765_0.jpg"
        string_val: "./downloads/datasets/veri_resized/image_train/0270_c002_00081785_0.jpg"
        string_val: "./downloads/datasets/veri_resized/image_train/0270_c002_00081800_0.jpg"
        string_val: "./downloads/datasets/veri_resized/image_train/0270_c003_00002120_0.jpg"
        string_val: "./downloads/datasets/veri_resized/image_train/0270_c003_00002130_0.jpg"
        string_val: "./downloads/datasets/veri_resized/image_train/0270_c003_00002140_0.jpg"
        string_val: "./downloads/datasets/veri_resized/image_train/0270_c003_00002150_0.jpg"
        string_val: "./downloads/datasets/veri_resized/image_train/0270_c003_00002160_0.jpg"
        string_val: "./downloads/datasets/veri_resized/image_train/0270_c003_00068600_0.jpg"
        string_val: "./downloads/datasets/veri_resized/image_train/0270_c003_00068630_0.jpg"
        string_val: "./downloads/datasets/veri_resized/image_train/0270_c003_00068645_0.jpg"
        string_val: "./downloads/datasets/veri_resized/image_train/0270_c003_00068665_0.jpg"
        string_val: "./downloads/datasets/veri_resized/image_train/0270_c003_00068675_0.jpg"
        string_val: "./downloads/datasets/veri_resized/image_train/0270_c003_00068680_0.jpg"
        string_val: "./downloads/datasets/veri_resized/image_train/0270_c003_00078825_0.jpg"
        string_val: "./downloads/datasets/veri_resized/image_train/0270_c003_00078835_0.jpg"
        string_val: "./downloads/datasets/veri_resized/image_train/0270_c003_00078845_0.jpg"
        string_val: "./downloads/datasets/veri_resized/image_train/0270_c003_00078855_0.jpg"
        string_val: "./downloads/datasets/veri_resized/image_train/0270_c003_00078870_0.jpg"
        string_val: "./downloads/datasets/veri_resized/image_train/0270_c003_00078885_0.jpg"
        string_val: "./downloads/datasets/veri_resized/image_train/0270_c004_00002025_0.jpg"
        string_val: "./downloads/datasets/veri_resized/image_train/0270_c004_00002030_0.jpg"
        string_val: "./downloads/datasets/veri_resized/image_train/0270_c004_00002035_0.jpg"
        string_val: "./downloads/datasets/veri_resized/image_train/0270_c004_00002040_0.jpg"
        string_val: "./downloads/datasets/veri_resized/image_train/0270_c004_00002045_0.jpg"
        string_val: "./downloads/datasets/veri_resized/image_train/0270_c004_00002050_0.jpg"
        string_val: "./downloads/datasets/veri_resized/image_train/0270_c004_00068265_0.jpg"
        string_val: "./downloads/datasets/veri_resized/image_train/0270_c004_00068290_0.jpg"
        string_val: "./downloads/datasets/veri_resized/image_train/0270_c004_00068525_0.jpg"
        string_val: "./downloads/datasets/veri_resized/image_train/0270_c004_00068565_0.jpg"
        string_val: "./downloads/datasets/veri_resized/image_train/0270_c004_00068585_0.jpg"
        string_val: "./downloads/datasets/veri_resized/image_train/0270_c004_00068590_0.jpg"
        string_val: "./downloads/datasets/veri_resized/image_train/0270_c004_00078755_0.jpg"
        string_val: "./downloads/datasets/veri_resized/image_train/0270_c004_00078760_0.jpg"
        string_val: "./downloads/datasets/veri_resized/image_train/0270_c004_00078765_0.jpg"
        string_val: "./downloads/datasets/veri_resized/image_train/0270_c004_00078770_0.jpg"
        string_val: "./downloads/datasets/veri_resized/image_train/0270_c004_00078775_0.jpg"
        string_val: "./downloads/datasets/veri_resized/image_train/0270_c004_00078780_0.jpg"
        string_val: "./downloads/datasets/veri_resized/image_train/0270_c005_00069690_0.jpg"
        string_val: "./downloads/datasets/veri_resized/image_train/0270_c005_00069710_0.jpg"
        string_val: "./downloads/datasets/veri_resized/image_train/0270_c005_00069730_0.jpg"
        string_val: "./downloads/datasets/veri_resized/image_train/0270_c005_00069750_0.jpg"
        string_val: "./downloads/datasets/veri_resized/image_train/0270_c005_00069765_0.jpg"
        string_val: "./downloads/datasets/veri_resized/image_train/0270_c005_00069785_0.jpg"
        string_val: "./downloads/datasets/veri_resized/image_train/0270_c006_00003065_0.jpg"
        string_val: "./downloads/datasets/veri_resized/image_train/0270_c006_00003080_0.jpg"
        string_val: "./downloads/datasets/veri_resized/image_train/0270_c006_00003090_0.jpg"
        string_val: "./downloads/datasets/veri_resized/image_train/0270_c006_00003100_0.jpg"
        string_val: "./downloads/datasets/veri_resized/image_train/0270_c006_00003110_0.jpg"
        string_val: "./downloads/datasets/veri_resized/image_train/0270_c006_00003130_0.jpg"
        string_val: "./downloads/datasets/veri_resized/image_train/0270_c006_00067070_0.jpg"
        string_val: "./downloads/datasets/veri_resized/image_train/0270_c006_00067095_1.jpg"
        string_val: "./downloads/datasets/veri_resized/image_train/0270_c006_00067120_1.jpg"
        string_val: "./downloads/datasets/veri_resized/image_train/0270_c006_00067150_0.jpg"
        string_val: "./downloads/datasets/veri_resized/image_train/0270_c006_00067170_0.jpg"
        string_val: "./downloads/datasets/veri_resized/image_train/0270_c006_00079680_0.jpg"
        string_val: "./downloads/datasets/veri_resized/image_train/0270_c006_00080050_1.jpg"
        string_val: "./downloads/datasets/veri_resized/image_train/0270_c006_00080065_1.jpg"
        string_val: "./downloads/datasets/veri_resized/image_train/0270_c006_00080080_1.jpg"
        string_val: "./downloads/datasets/veri_resized/image_train/0270_c006_00080100_1.jpg"
        string_val: "./downloads/datasets/veri_resized/image_train/0270_c006_00080130_1.jpg"
        string_val: "./downloads/datasets/veri_resized/image_train/0270_c007_00069810_0.jpg"
        string_val: "./downloads/datasets/veri_resized/image_train/0270_c007_00069815_0.jpg"
        string_val: "./downloads/datasets/veri_resized/image_train/0270_c007_00069820_0.jpg"
        string_val: "./downloads/datasets/veri_resized/image_train/0270_c007_00069825_0.jpg"
        string_val: "./downloads/datasets/veri_resized/image_train/0270_c007_00069830_0.jpg"
        string_val: "./downloads/datasets/veri_resized/image_train/0270_c008_00001860_0.jpg"
        string_val: "./downloads/datasets/veri_resized/image_train/0270_c008_00001870_0.jpg"
        string_val: "./downloads/datasets/veri_resized/image_train/0270_c008_00001880_0.jpg"
        string_val: "./downloads/datasets/veri_resized/image_train/0270_c008_00001890_0.jpg"
        string_val: "./downloads/datasets/veri_resized/image_train/0270_c008_00001910_0.jpg"
        string_val: "./downloads/datasets/veri_resized/image_train/0270_c008_00068885_0.jpg"
        string_val: "./downloads/datasets/veri_resized/image_train/0270_c008_00068890_0.jpg"
        string_val: "./downloads/datasets/veri_resized/image_train/0270_c008_00068895_0.jpg"
        string_val: "./downloads/datasets/veri_resized/image_train/0270_c008_00068900_0.jpg"
        string_val: "./downloads/datasets/veri_resized/image_train/0270_c008_00078540_0.jpg"
        string_val: "./downloads/datasets/veri_resized/image_train/0270_c008_00078550_0.jpg"
        string_val: "./downloads/datasets/veri_resized/image_train/0270_c008_00078555_0.jpg"
        string_val: "./downloads/datasets/veri_resized/image_train/0270_c008_00078560_0.jpg"
        string_val: "./downloads/datasets/veri_resized/image_train/0270_c008_00078565_0.jpg"
        string_val: "./downloads/datasets/veri_resized/image_train/0270_c008_00078570_0.jpg"
        string_val: "./downloads/datasets/veri_resized/image_train/0270_c009_00001835_0.jpg"
        string_val: "./downloads/datasets/veri_resized/image_train/0270_c009_00001880_0.jpg"
        string_val: "./downloads/datasets/veri_resized/image_train/0270_c009_00001905_0.jpg"
        string_val: "./downloads/datasets/veri_resized/image_train/0270_c009_00001925_0.jpg"
        string_val: "./downloads/datasets/veri_resized/image_train/0270_c009_00001945_0.jpg"
        string_val: "./downloads/datasets/veri_resized/image_train/0270_c009_00001960_0.jpg"
        string_val: "./downloads/datasets/veri_resized/image_train/0270_c009_00068815_0.jpg"
        string_val: "./downloads/datasets/veri_resized/image_train/0270_c009_00068820_0.jpg"
        string_val: "./downloads/datasets/veri_resized/image_train/0270_c009_00068825_0.jpg"
        string_val: "./downloads/datasets/veri_resized/image_train/0270_c009_00068830_0.jpg"
        string_val: "./downloads/datasets/veri_resized/image_train/0270_c009_00068835_0.jpg"
        string_val: "./downloads/datasets/veri_resized/image_train/0270_c009_00068840_0.jpg"
        string_val: "./downloads/datasets/veri_resized/image_train/0270_c009_00078645_0.jpg"
        string_val: "./downloads/datasets/veri_resized/image_train/0270_c009_00078650_0.jpg"
        string_val: "./downloads/datasets/veri_resized/image_train/0270_c009_00078660_1.jpg"
        string_val: "./downloads/datasets/veri_resized/image_train/0270_c009_00078665_1.jpg"
        string_val: "./downloads/datasets/veri_resized/image_train/0270_c009_00078670_1.jpg"
        string_val: "./downloads/datasets/veri_resized/image_train/0270_c009_00078675_1.jpg"
        string_val: "./downloads/datasets/veri_resized/image_train/0270_c010_00002965_0.jpg"
        string_val: "./downloads/datasets/veri_resized/image_train/0270_c010_00002970_0.jpg"
        string_val: "./downloads/datasets/veri_resized/image_train/0270_c010_00002975_0.jpg"
        string_val: "./downloads/datasets/veri_resized/image_train/0270_c010_00002980_0.jpg"
        string_val: "./downloads/datasets/veri_resized/image_train/0270_c010_00002985_0.jpg"
        string_val: "./downloads/datasets/veri_resized/image_train/0270_c010_00002990_0.jpg"
        string_val: "./downloads/datasets/veri_resized/image_train/0270_c010_00067685_0.jpg"
        string_val: "./downloads/datasets/veri_resized/image_train/0270_c010_00067690_0.jpg"
        string_val: "./downloads/datasets/veri_resized/image_train/0270_c010_00067695_0.jpg"
        string_val: "./downloads/datasets/veri_resized/image_train/0270_c010_00067700_0.jpg"
        string_val: "./downloads/datasets/veri_resized/image_train/0270_c010_00067705_0.jpg"
        string_val: "./downloads/datasets/veri_resized/image_train/0270_c010_00067710_0.jpg"
        string_val: "./downloads/datasets/veri_resized/image_train/0270_c010_00079560_0.jpg"
        string_val: "./downloads/datasets/veri_resized/image_train/0270_c010_00079565_0.jpg"
        string_val: "./downloads/datasets/veri_resized/image_train/0270_c010_00079570_0.jpg"
        string_val: "./downloads/datasets/veri_resized/image_train/0270_c010_00079575_0.jpg"
        string_val: "./downloads/datasets/veri_resized/image_train/0270_c010_00079585_0.jpg"
        string_val: "./downloads/datasets/veri_resized/image_train/0270_c010_00079590_0.jpg"
        string_val: "./downloads/datasets/veri_resized/image_train/0270_c011_00003025_1.jpg"
        string_val: "./downloads/datasets/veri_resized/image_train/0270_c011_00003035_1.jpg"
        string_val: "./downloads/datasets/veri_resized/image_train/0270_c011_00003045_1.jpg"
        string_val: "./downloads/datasets/veri_resized/image_train/0270_c011_00003055_0.jpg"
        string_val: "./downloads/datasets/veri_resized/image_train/0270_c011_00003065_0.jpg"
        string_val: "./downloads/datasets/veri_resized/image_train/0270_c011_00003075_0.jpg"
        string_val: "./downloads/datasets/veri_resized/image_train/0270_c011_00067080_1.jpg"
        string_val: "./downloads/datasets/veri_resized/image_train/0270_c011_00067090_1.jpg"
        string_val: "./downloads/datasets/veri_resized/image_train/0270_c011_00067110_1.jpg"
        string_val: "./downloads/datasets/veri_resized/image_train/0270_c011_00067120_0.jpg"
        string_val: "./downloads/datasets/veri_resized/image_train/0270_c011_00067140_0.jpg"
        string_val: "./downloads/datasets/veri_resized/image_train/0270_c011_00067145_0.jpg"
        string_val: "./downloads/datasets/veri_resized/image_train/0270_c011_00080120_0.jpg"
        string_val: "./downloads/datasets/veri_resized/image_train/0270_c011_00080130_0.jpg"
        string_val: "./downloads/datasets/veri_resized/image_train/0270_c011_00080160_0.jpg"
        string_val: "./downloads/datasets/veri_resized/image_train/0270_c011_00080170_0.jpg"
        string_val: "./downloads/datasets/veri_resized/image_train/0270_c011_00080190_0.jpg"
        string_val: "./downloads/datasets/veri_resized/image_train/0270_c011_00080245_0.jpg"
        string_val: "./downloads/datasets/veri_resized/image_train/0270_c012_00005420_0.jpg"
        string_val: "./downloads/datasets/veri_resized/image_train/0270_c012_00005425_0.jpg"
        string_val: "./downloads/datasets/veri_resized/image_train/0270_c012_00005430_0.jpg"
        string_val: "./downloads/datasets/veri_resized/image_train/0270_c012_00005435_0.jpg"
        string_val: "./downloads/datasets/veri_resized/image_train/0270_c012_00005445_0.jpg"
        string_val: "./downloads/datasets/veri_resized/image_train/0270_c012_00005450_0.jpg"
        string_val: "./downloads/datasets/veri_resized/image_train/0270_c012_00063880_0.jpg"
        string_val: "./downloads/datasets/veri_resized/image_train/0270_c012_00063890_0.jpg"
        string_val: "./downloads/datasets/veri_resized/image_train/0270_c012_00063900_0.jpg"
        string_val: "./downloads/datasets/veri_resized/image_train/0270_c012_00063910_0.jpg"
        string_val: "./downloads/datasets/veri_resized/image_train/0270_c012_00063920_0.jpg"
        string_val: "./downloads/datasets/veri_resized/image_train/0270_c012_00063930_0.jpg"
        string_val: "./downloads/datasets/veri_resized/image_train/0270_c012_00083755_0.jpg"
        string_val: "./downloads/datasets/veri_resized/image_train/0270_c012_00083760_0.jpg"
        string_val: "./downloads/datasets/veri_resized/image_train/0270_c012_00083765_0.jpg"
        string_val: "./downloads/datasets/veri_resized/image_train/0270_c012_00083775_0.jpg"
        string_val: "./downloads/datasets/veri_resized/image_train/0270_c012_00083785_0.jpg"
        string_val: "./downloads/datasets/veri_resized/image_train/0270_c012_00083795_0.jpg"
        string_val: "./downloads/datasets/veri_resized/image_train/0270_c013_00005270_0.jpg"
        string_val: "./downloads/datasets/veri_resized/image_train/0270_c013_00005280_0.jpg"
        string_val: "./downloads/datasets/veri_resized/image_train/0270_c013_00005290_0.jpg"
        string_val: "./downloads/datasets/veri_resized/image_train/0270_c013_00005295_0.jpg"
        string_val: "./downloads/datasets/veri_resized/image_train/0270_c013_00005305_0.jpg"
        string_val: "./downloads/datasets/veri_resized/image_train/0270_c013_00064015_0.jpg"
        string_val: "./downloads/datasets/veri_resized/image_train/0270_c013_00064020_0.jpg"
        string_val: "./downloads/datasets/veri_resized/image_train/0270_c013_00064025_0.jpg"
        string_val: "./downloads/datasets/veri_resized/image_train/0270_c013_00064030_0.jpg"
        string_val: "./downloads/datasets/veri_resized/image_train/0270_c013_00064035_0.jpg"
        string_val: "./downloads/datasets/veri_resized/image_train/0270_c013_00064040_0.jpg"
        string_val: "./downloads/datasets/veri_resized/image_train/0270_c013_00083605_0.jpg"
        string_val: "./downloads/datasets/veri_resized/image_train/0270_c013_00083610_0.jpg"
        string_val: "./downloads/datasets/veri_resized/image_train/0270_c013_00083615_0.jpg"
        string_val: "./downloads/datasets/veri_resized/image_train/0270_c013_00083620_0.jpg"
        string_val: "./downloads/datasets/veri_resized/image_train/0270_c013_00083625_0.jpg"
        string_val: "./downloads/datasets/veri_resized/image_train/0270_c013_00083630_0.jpg"
        string_val: "./downloads/datasets/veri_resized/image_train/0270_c014_00007315_0.jpg"
        string_val: "./downloads/datasets/veri_resized/image_train/0270_c014_00007320_0.jpg"
        string_val: "./downloads/datasets/veri_resized/image_train/0270_c014_00007325_0.jpg"
        string_val: "./downloads/datasets/veri_resized/image_train/0270_c014_00007330_0.jpg"
        string_val: "./downloads/datasets/veri_resized/image_train/0270_c014_00060620_0.jpg"
        string_val: "./downloads/datasets/veri_resized/image_train/0270_c014_00060625_0.jpg"
        string_val: "./downloads/datasets/veri_resized/image_train/0270_c014_00060630_0.jpg"
        string_val: "./downloads/datasets/veri_resized/image_train/0270_c014_00060635_0.jpg"
        string_val: "./downloads/datasets/veri_resized/image_train/0270_c014_00060640_0.jpg"
        string_val: "./downloads/datasets/veri_resized/image_train/0270_c014_00060645_0.jpg"
        string_val: "./downloads/datasets/veri_resized/image_train/0270_c015_00007145_0.jpg"
        string_val: "./downloads/datasets/veri_resized/image_train/0270_c015_00007160_0.jpg"
        string_val: "./downloads/datasets/veri_resized/image_train/0270_c015_00007175_0.jpg"
        string_val: "./downloads/datasets/veri_resized/image_train/0270_c015_00007180_0.jpg"
        string_val: "./downloads/datasets/veri_resized/image_train/0270_c015_00007185_0.jpg"
        string_val: "./downloads/datasets/veri_resized/image_train/0270_c015_00007190_0.jpg"
        string_val: "./downloads/datasets/veri_resized/image_train/0270_c015_00060780_0.jpg"
        string_val: "./downloads/datasets/veri_resized/image_train/0270_c015_00060785_0.jpg"
        string_val: "./downloads/datasets/veri_resized/image_train/0270_c015_00060790_1.jpg"
        string_val: "./downloads/datasets/veri_resized/image_train/0270_c015_00060795_0.jpg"
        string_val: "./downloads/datasets/veri_resized/image_train/0270_c015_00060800_0.jpg"
        string_val: "./downloads/datasets/veri_resized/image_train/0270_c015_00060805_0.jpg"
        string_val: "./downloads/datasets/veri_resized/image_train/0270_c015_00089770_0.jpg"
        string_val: "./downloads/datasets/veri_resized/image_train/0270_c015_00089775_0.jpg"
        string_val: "./downloads/datasets/veri_resized/image_train/0270_c015_00089780_0.jpg"
        string_val: "./downloads/datasets/veri_resized/image_train/0270_c015_00089785_0.jpg"
        string_val: "./downloads/datasets/veri_resized/image_train/0270_c015_00089790_0.jpg"
        string_val: "./downloads/datasets/veri_resized/image_train/0270_c015_00089795_0.jpg"
        string_val: "./downloads/datasets/veri_resized/image_train/0270_c016_00007645_0.jpg"
        string_val: "./downloads/datasets/veri_resized/image_train/0270_c016_00007650_0.jpg"
        string_val: "./downloads/datasets/veri_resized/image_train/0270_c016_00007655_0.jpg"
        string_val: "./downloads/datasets/veri_resized/image_train/0270_c016_00007660_0.jpg"
        string_val: "./downloads/datasets/veri_resized/image_train/0270_c016_00007670_0.jpg"
        string_val: "./downloads/datasets/veri_resized/image_train/0270_c016_00007675_0.jpg"
        string_val: "./downloads/datasets/veri_resized/image_train/0270_c016_00059990_0.jpg"
        string_val: "./downloads/datasets/veri_resized/image_train/0270_c016_00059995_0.jpg"
        string_val: "./downloads/datasets/veri_resized/image_train/0270_c016_00060000_0.jpg"
        string_val: "./downloads/datasets/veri_resized/image_train/0270_c016_00060005_0.jpg"
        string_val: "./downloads/datasets/veri_resized/image_train/0270_c016_00060010_0.jpg"
        string_val: "./downloads/datasets/veri_resized/image_train/0270_c016_00060015_0.jpg"
        string_val: "./downloads/datasets/veri_resized/image_train/0270_c017_00006125_0.jpg"
        string_val: "./downloads/datasets/veri_resized/image_train/0270_c017_00006130_0.jpg"
        string_val: "./downloads/datasets/veri_resized/image_train/0270_c017_00006140_0.jpg"
        string_val: "./downloads/datasets/veri_resized/image_train/0270_c017_00006165_0.jpg"
        string_val: "./downloads/datasets/veri_resized/image_train/0270_c017_00006200_0.jpg"
        string_val: "./downloads/datasets/veri_resized/image_train/0270_c017_00006210_0.jpg"
        string_val: "./downloads/datasets/veri_resized/image_train/0270_c017_00062480_0.jpg"
        string_val: "./downloads/datasets/veri_resized/image_train/0270_c017_00062485_0.jpg"
        string_val: "./downloads/datasets/veri_resized/image_train/0270_c017_00062500_0.jpg"
        string_val: "./downloads/datasets/veri_resized/image_train/0270_c017_00062510_0.jpg"
        string_val: "./downloads/datasets/veri_resized/image_train/0270_c017_00062520_0.jpg"
        string_val: "./downloads/datasets/veri_resized/image_train/0270_c017_00062530_0.jpg"
        string_val: "./downloads/datasets/veri_resized/image_train/0270_c017_00084455_0.jpg"
        string_val: "./downloads/datasets/veri_resized/image_train/0270_c017_00084460_0.jpg"
        string_val: "./downloads/datasets/veri_resized/image_train/0270_c017_00084465_0.jpg"
        string_val: "./downloads/datasets/veri_resized/image_train/0270_c017_00084475_0.jpg"
        string_val: "./downloads/datasets/veri_resized/image_train/0270_c017_00084485_0.jpg"
        string_val: "./downloads/datasets/veri_resized/image_train/0270_c017_00084500_0.jpg"
        string_val: "./downloads/datasets/veri_resized/image_train/0270_c019_00006350_0.jpg"
        string_val: "./downloads/datasets/veri_resized/image_train/0270_c019_00006355_0.jpg"
        string_val: "./downloads/datasets/veri_resized/image_train/0270_c019_00006360_0.jpg"
        string_val: "./downloads/datasets/veri_resized/image_train/0270_c019_00006370_0.jpg"
        string_val: "./downloads/datasets/veri_resized/image_train/0270_c019_00006375_0.jpg"
        string_val: "./downloads/datasets/veri_resized/image_train/0270_c019_00006390_0.jpg"
        string_val: "./downloads/datasets/veri_resized/image_train/0270_c019_00062135_0.jpg"
        string_val: "./downloads/datasets/veri_resized/image_train/0270_c019_00062140_0.jpg"
        string_val: "./downloads/datasets/veri_resized/image_train/0270_c019_00062145_0.jpg"
        string_val: "./downloads/datasets/veri_resized/image_train/0270_c019_00062150_0.jpg"
        string_val: "./downloads/datasets/veri_resized/image_train/0270_c019_00062155_0.jpg"
        string_val: "./downloads/datasets/veri_resized/image_train/0270_c019_00062160_0.jpg"
        string_val: "./downloads/datasets/veri_resized/image_train/0270_c019_00084685_0.jpg"
        string_val: "./downloads/datasets/veri_resized/image_train/0270_c019_00084690_0.jpg"
        string_val: "./downloads/datasets/veri_resized/image_train/0270_c019_00084695_0.jpg"
        string_val: "./downloads/datasets/veri_resized/image_train/0270_c019_00084700_0.jpg"
        string_val: "./downloads/datasets/veri_resized/image_train/0270_c019_00084705_0.jpg"
        string_val: "./downloads/datasets/veri_resized/image_train/0270_c019_00084715_0.jpg"
        string_val: "./downloads/datasets/veri_resized/image_train/0286_c001_00069155_0.jpg"
        string_val: "./downloads/datasets/veri_resized/image_train/0286_c001_00069160_0.jpg"
        string_val: "./downloads/datasets/veri_resized/image_train/0286_c001_00069165_0.jpg"
        string_val: "./downloads/datasets/veri_resized/image_train/0286_c001_00069170_0.jpg"
        string_val: "./downloads/datasets/veri_resized/image_train/0286_c001_00069175_0.jpg"
        string_val: "./downloads/datasets/veri_resized/image_train/0286_c001_00069180_0.jpg"
        string_val: "./downloads/datasets/veri_resized/image_train/0286_c002_00067430_0.jpg"
        string_val: "./downloads/datasets/veri_resized/image_train/0286_c002_00067450_0.jpg"
        string_val: "./downloads/datasets/veri_resized/image_train/0286_c002_00067470_0.jpg"
        string_val: "./downloads/datasets/veri_resized/image_train/0286_c002_00067500_0.jpg"
        string_val: "./downloads/datasets/veri_resized/image_train/0286_c002_00067505_0.jpg"
        string_val: "./downloads/datasets/veri_resized/image_train/0286_c002_00067515_0.jpg"
        string_val: "./downloads/datasets/veri_resized/image_train/0286_c003_00064930_1.jpg"
        string_val: "./downloads/datasets/veri_resized/image_train/0286_c003_00064935_0.jpg"
        string_val: "./downloads/datasets/veri_resized/image_train/0286_c003_00064940_0.jpg"
        string_val: "./downloads/datasets/veri_resized/image_train/0286_c003_00064945_0.jpg"
        string_val: "./downloads/datasets/veri_resized/image_train/0286_c003_00064950_0.jpg"
        string_val: "./downloads/datasets/veri_resized/image_train/0286_c003_00064955_0.jpg"
        string_val: "./downloads/datasets/veri_resized/image_train/0286_c004_00064835_0.jpg"
        string_val: "./downloads/datasets/veri_resized/image_train/0286_c004_00064840_0.jpg"
        string_val: "./downloads/datasets/veri_resized/image_train/0286_c004_00064845_0.jpg"
        string_val: "./downloads/datasets/veri_resized/image_train/0286_c004_00064850_0.jpg"
        string_val: "./downloads/datasets/veri_resized/image_train/0286_c004_00064855_0.jpg"
        string_val: "./downloads/datasets/veri_resized/image_train/0286_c004_00064860_0.jpg"
        string_val: "./downloads/datasets/veri_resized/image_train/0286_c006_00066095_0.jpg"
        string_val: "./downloads/datasets/veri_resized/image_train/0286_c006_00066120_0.jpg"
        string_val: "./downloads/datasets/veri_resized/image_train/0286_c006_00066155_0.jpg"
        string_val: "./downloads/datasets/veri_resized/image_train/0286_c006_00066195_0.jpg"
        string_val: "./downloads/datasets/veri_resized/image_train/0286_c006_00066235_0.jpg"
        string_val: "./downloads/datasets/veri_resized/image_train/0286_c008_00064630_0.jpg"
        string_val: "./downloads/datasets/veri_resized/image_train/0286_c008_00064635_0.jpg"
        string_val: "./downloads/datasets/veri_resized/image_train/0286_c008_00064645_0.jpg"
        string_val: "./downloads/datasets/veri_resized/image_train/0286_c008_00064650_0.jpg"
        string_val: "./downloads/datasets/veri_resized/image_train/0286_c008_00064655_0.jpg"
        string_val: "./downloads/datasets/veri_resized/image_train/0286_c008_00064660_0.jpg"
        string_val: "./downloads/datasets/veri_resized/image_train/0286_c009_00064740_0.jpg"
        string_val: "./downloads/datasets/veri_resized/image_train/0286_c009_00064745_0.jpg"
        string_val: "./downloads/datasets/veri_resized/image_train/0286_c009_00064750_0.jpg"
        string_val: "./downloads/datasets/veri_resized/image_train/0286_c009_00064755_0.jpg"
        string_val: "./downloads/datasets/veri_resized/image_train/0286_c009_00064760_0.jpg"
        string_val: "./downloads/datasets/veri_resized/image_train/0286_c009_00064765_0.jpg"
        string_val: "./downloads/datasets/veri_resized/image_train/0286_c010_00065750_0.jpg"
        string_val: "./downloads/datasets/veri_resized/image_train/0286_c010_00065755_0.jpg"
        string_val: "./downloads/datasets/veri_resized/image_train/0286_c010_00065760_0.jpg"
        string_val: "./downloads/datasets/veri_resized/image_train/0286_c010_00065765_0.jpg"
        string_val: "./downloads/datasets/veri_resized/image_train/0286_c010_00065770_0.jpg"
        string_val: "./downloads/datasets/veri_resized/image_train/0286_c010_00065775_0.jpg"
        string_val: "./downloads/datasets/veri_resized/image_train/0286_c011_00066110_0.jpg"
        string_val: "./downloads/datasets/veri_resized/image_train/0286_c011_00066130_0.jpg"
        string_val: "./downloads/datasets/veri_resized/image_train/0286_c011_00066140_0.jpg"
        string_val: "./downloads/datasets/veri_resized/image_train/0286_c011_00066160_0.jpg"
        string_val: "./downloads/datasets/veri_resized/image_train/0286_c011_00066180_0.jpg"
        string_val: "./downloads/datasets/veri_resized/image_train/0286_c011_00066230_0.jpg"
        string_val: "./downloads/datasets/veri_resized/image_train/0286_c012_00069740_0.jpg"
        string_val: "./downloads/datasets/veri_resized/image_train/0286_c012_00069745_0.jpg"
        string_val: "./downloads/datasets/veri_resized/image_train/0286_c012_00069755_0.jpg"
        string_val: "./downloads/datasets/veri_resized/image_train/0286_c012_00069770_0.jpg"
        string_val: "./downloads/datasets/veri_resized/image_train/0286_c012_00069795_0.jpg"
        string_val: "./downloads/datasets/veri_resized/image_train/0286_c012_00069805_0.jpg"
        string_val: "./downloads/datasets/veri_resized/image_train/0286_c013_00069530_0.jpg"
        string_val: "./downloads/datasets/veri_resized/image_train/0286_c013_00069535_0.jpg"
        string_val: "./downloads/datasets/veri_resized/image_train/0286_c013_00069540_0.jpg"
        string_val: "./downloads/datasets/veri_resized/image_train/0286_c013_00069545_0.jpg"
        string_val: "./downloads/datasets/veri_resized/image_train/0286_c013_00069550_0.jpg"
        string_val: "./downloads/datasets/veri_resized/image_train/0286_c013_00069555_0.jpg"
        string_val: "./downloads/datasets/veri_resized/image_train/0286_c014_00072435_0.jpg"
        string_val: "./downloads/datasets/veri_resized/image_train/0286_c014_00072440_0.jpg"
        string_val: "./downloads/datasets/veri_resized/image_train/0286_c014_00072445_0.jpg"
        string_val: "./downloads/datasets/veri_resized/image_train/0286_c014_00072450_0.jpg"
        string_val: "./downloads/datasets/veri_resized/image_train/0286_c014_00072455_0.jpg"
        string_val: "./downloads/datasets/veri_resized/image_train/0286_c014_00072460_0.jpg"
        string_val: "./downloads/datasets/veri_resized/image_train/0286_c015_00072185_0.jpg"
        string_val: "./downloads/datasets/veri_resized/image_train/0286_c015_00072190_0.jpg"
        string_val: "./downloads/datasets/veri_resized/image_train/0286_c015_00072195_0.jpg"
        string_val: "./downloads/datasets/veri_resized/image_train/0286_c015_00072200_0.jpg"
        string_val: "./downloads/datasets/veri_resized/image_train/0286_c015_00072205_0.jpg"
        string_val: "./downloads/datasets/veri_resized/image_train/0286_c015_00072210_0.jpg"
        string_val: "./downloads/datasets/veri_resized/image_train/0286_c016_00073810_0.jpg"
        string_val: "./downloads/datasets/veri_resized/image_train/0286_c016_00073815_0.jpg"
        string_val: "./downloads/datasets/veri_resized/image_train/0286_c016_00073820_0.jpg"
        string_val: "./downloads/datasets/veri_resized/image_train/0286_c016_00073825_0.jpg"
        string_val: "./downloads/datasets/veri_resized/image_train/0286_c016_00073830_0.jpg"
        string_val: "./downloads/datasets/veri_resized/image_train/0286_c016_00073835_0.jpg"
        string_val: "./downloads/datasets/veri_resized/image_train/0286_c017_00070675_0.jpg"
        string_val: "./downloads/datasets/veri_resized/image_train/0286_c017_00070680_0.jpg"
        string_val: "./downloads/datasets/veri_resized/image_train/0286_c017_00070685_0.jpg"
        string_val: "./downloads/datasets/veri_resized/image_train/0286_c017_00070690_0.jpg"
        string_val: "./downloads/datasets/veri_resized/image_train/0286_c017_00070695_0.jpg"
        string_val: "./downloads/datasets/veri_resized/image_train/0286_c017_00070700_0.jpg"
        string_val: "./downloads/datasets/veri_resized/image_train/0286_c019_00070925_0.jpg"
        string_val: "./downloads/datasets/veri_resized/image_train/0286_c019_00070930_0.jpg"
        string_val: "./downloads/datasets/veri_resized/image_train/0286_c019_00070935_0.jpg"
        string_val: "./downloads/datasets/veri_resized/image_train/0286_c019_00070940_0.jpg"
        string_val: "./downloads/datasets/veri_resized/image_train/0286_c019_00070945_0.jpg"
        string_val: "./downloads/datasets/veri_resized/image_train/0286_c019_00070955_0.jpg"
        string_val: "./downloads/datasets/veri_resized/image_train/0293_c003_00000695_0.jpg"
        string_val: "./downloads/datasets/veri_resized/image_train/0293_c003_00000710_0.jpg"
        string_val: "./downloads/datasets/veri_resized/image_train/0293_c003_00000725_0.jpg"
        string_val: "./downloads/datasets/veri_resized/image_train/0293_c003_00000735_0.jpg"
        string_val: "./downloads/datasets/veri_resized/image_train/0293_c003_00000740_0.jpg"
        string_val: "./downloads/datasets/veri_resized/image_train/0293_c003_00000745_0.jpg"
        string_val: "./downloads/datasets/veri_resized/image_train/0293_c003_00055645_0.jpg"
        string_val: "./downloads/datasets/veri_resized/image_train/0293_c003_00055670_0.jpg"
        string_val: "./downloads/datasets/veri_resized/image_train/0293_c003_00055695_0.jpg"
        string_val: "./downloads/datasets/veri_resized/image_train/0293_c003_00055720_0.jpg"
        string_val: "./downloads/datasets/veri_resized/image_train/0293_c003_00055725_0.jpg"
        string_val: "./downloads/datasets/veri_resized/image_train/0293_c003_00055730_0.jpg"
        string_val: "./downloads/datasets/veri_resized/image_train/0293_c004_00000580_0.jpg"
        string_val: "./downloads/datasets/veri_resized/image_train/0293_c004_00000585_0.jpg"
        string_val: "./downloads/datasets/veri_resized/image_train/0293_c004_00000590_0.jpg"
        string_val: "./downloads/datasets/veri_resized/image_train/0293_c004_00000595_0.jpg"
        string_val: "./downloads/datasets/veri_resized/image_train/0293_c004_00000600_0.jpg"
        string_val: "./downloads/datasets/veri_resized/image_train/0293_c004_00000605_0.jpg"
        string_val: "./downloads/datasets/veri_resized/image_train/0293_c004_00055470_0.jpg"
        string_val: "./downloads/datasets/veri_resized/image_train/0293_c004_00055510_0.jpg"
        string_val: "./downloads/datasets/veri_resized/image_train/0293_c004_00055565_1.jpg"
        string_val: "./downloads/datasets/veri_resized/image_train/0293_c004_00055585_0.jpg"
        string_val: "./downloads/datasets/veri_resized/image_train/0293_c004_00055620_0.jpg"
        string_val: "./downloads/datasets/veri_resized/image_train/0293_c004_00055695_0.jpg"
        string_val: "./downloads/datasets/veri_resized/image_train/0293_c006_00001460_0.jpg"
        string_val: "./downloads/datasets/veri_resized/image_train/0293_c006_00001470_0.jpg"
        string_val: "./downloads/datasets/veri_resized/image_train/0293_c006_00001480_0.jpg"
        string_val: "./downloads/datasets/veri_resized/image_train/0293_c006_00001490_0.jpg"
        string_val: "./downloads/datasets/veri_resized/image_train/0293_c006_00001500_0.jpg"
        string_val: "./downloads/datasets/veri_resized/image_train/0293_c006_00001510_0.jpg"
        string_val: "./downloads/datasets/veri_resized/image_train/0293_c006_00002530_0.jpg"
        string_val: "./downloads/datasets/veri_resized/image_train/0293_c006_00002600_0.jpg"
        string_val: "./downloads/datasets/veri_resized/image_train/0293_c006_00002685_0.jpg"
        string_val: "./downloads/datasets/veri_resized/image_train/0293_c006_00002755_0.jpg"
        string_val: "./downloads/datasets/veri_resized/image_train/0293_c006_00002800_0.jpg"
        string_val: "./downloads/datasets/veri_resized/image_train/0293_c006_00002830_0.jpg"
        string_val: "./downloads/datasets/veri_resized/image_train/0293_c006_00056325_0.jpg"
        string_val: "./downloads/datasets/veri_resized/image_train/0293_c006_00056335_0.jpg"
        string_val: "./downloads/datasets/veri_resized/image_train/0293_c006_00056345_0.jpg"
        string_val: "./downloads/datasets/veri_resized/image_train/0293_c006_00056355_0.jpg"
        string_val: "./downloads/datasets/veri_resized/image_train/0293_c006_00056365_0.jpg"
        string_val: "./downloads/datasets/veri_resized/image_train/0293_c006_00056380_0.jpg"
        string_val: "./downloads/datasets/veri_resized/image_train/0293_c008_00000375_0.jpg"
        string_val: "./downloads/datasets/veri_resized/image_train/0293_c008_00000385_0.jpg"
        string_val: "./downloads/datasets/veri_resized/image_train/0293_c008_00000395_0.jpg"
        string_val: "./downloads/datasets/veri_resized/image_train/0293_c008_00000405_0.jpg"
        string_val: "./downloads/datasets/veri_resized/image_train/0293_c008_00000415_0.jpg"
        string_val: "./downloads/datasets/veri_resized/image_train/0293_c008_00000425_0.jpg"
        string_val: "./downloads/datasets/veri_resized/image_train/0293_c009_00000425_0.jpg"
        string_val: "./downloads/datasets/veri_resized/image_train/0293_c009_00000435_0.jpg"
        string_val: "./downloads/datasets/veri_resized/image_train/0293_c009_00000445_0.jpg"
        string_val: "./downloads/datasets/veri_resized/image_train/0293_c009_00000455_0.jpg"
        string_val: "./downloads/datasets/veri_resized/image_train/0293_c009_00000475_0.jpg"
        string_val: "./downloads/datasets/veri_resized/image_train/0293_c009_00000500_0.jpg"
        string_val: "./downloads/datasets/veri_resized/image_train/0293_c010_00001370_0.jpg"
        string_val: "./downloads/datasets/veri_resized/image_train/0293_c010_00001375_0.jpg"
        string_val: "./downloads/datasets/veri_resized/image_train/0293_c010_00001380_0.jpg"
        string_val: "./downloads/datasets/veri_resized/image_train/0293_c010_00001385_0.jpg"
        string_val: "./downloads/datasets/veri_resized/image_train/0293_c010_00001390_0.jpg"
        string_val: "./downloads/datasets/veri_resized/image_train/0293_c010_00001395_0.jpg"
        string_val: "./downloads/datasets/veri_resized/image_train/0293_c010_00002990_1.jpg"
        string_val: "./downloads/datasets/veri_resized/image_train/0293_c010_00002995_0.jpg"
        string_val: "./downloads/datasets/veri_resized/image_train/0293_c010_00003000_0.jpg"
        string_val: "./downloads/datasets/veri_resized/image_train/0293_c010_00003005_0.jpg"
        string_val: "./downloads/datasets/veri_resized/image_train/0293_c010_00003010_0.jpg"
        string_val: "./downloads/datasets/veri_resized/image_train/0293_c010_00003015_0.jpg"
        string_val: "./downloads/datasets/veri_resized/image_train/0293_c010_00056295_0.jpg"
        string_val: "./downloads/datasets/veri_resized/image_train/0293_c010_00056300_0.jpg"
        string_val: "./downloads/datasets/veri_resized/image_train/0293_c010_00056305_0.jpg"
        string_val: "./downloads/datasets/veri_resized/image_train/0293_c010_00056310_0.jpg"
        string_val: "./downloads/datasets/veri_resized/image_train/0293_c010_00056315_0.jpg"
        string_val: "./downloads/datasets/veri_resized/image_train/0293_c010_00056320_0.jpg"
        string_val: "./downloads/datasets/veri_resized/image_train/0293_c011_00001435_0.jpg"
        string_val: "./downloads/datasets/veri_resized/image_train/0293_c011_00001440_0.jpg"
        string_val: "./downloads/datasets/veri_resized/image_train/0293_c011_00001450_0.jpg"
        string_val: "./downloads/datasets/veri_resized/image_train/0293_c011_00001460_0.jpg"
        string_val: "./downloads/datasets/veri_resized/image_train/0293_c011_00001485_0.jpg"
        string_val: "./downloads/datasets/veri_resized/image_train/0293_c011_00001540_0.jpg"
        string_val: "./downloads/datasets/veri_resized/image_train/0293_c011_00002510_0.jpg"
        string_val: "./downloads/datasets/veri_resized/image_train/0293_c011_00002560_0.jpg"
        string_val: "./downloads/datasets/veri_resized/image_train/0293_c011_00002615_0.jpg"
        string_val: "./downloads/datasets/veri_resized/image_train/0293_c011_00002665_0.jpg"
        string_val: "./downloads/datasets/veri_resized/image_train/0293_c011_00002715_0.jpg"
        string_val: "./downloads/datasets/veri_resized/image_train/0293_c011_00002750_0.jpg"
        string_val: "./downloads/datasets/veri_resized/image_train/0293_c011_00056325_0.jpg"
        string_val: "./downloads/datasets/veri_resized/image_train/0293_c011_00056330_0.jpg"
        string_val: "./downloads/datasets/veri_resized/image_train/0293_c011_00056340_0.jpg"
        string_val: "./downloads/datasets/veri_resized/image_train/0293_c011_00056345_0.jpg"
        string_val: "./downloads/datasets/veri_resized/image_train/0293_c011_00056350_0.jpg"
        string_val: "./downloads/datasets/veri_resized/image_train/0293_c011_00056355_0.jpg"
        string_val: "./downloads/datasets/veri_resized/image_train/0305_c001_00086500_0.jpg"
        string_val: "./downloads/datasets/veri_resized/image_train/0305_c001_00086510_0.jpg"
        string_val: "./downloads/datasets/veri_resized/image_train/0305_c001_00086520_0.jpg"
        string_val: "./downloads/datasets/veri_resized/image_train/0305_c001_00086530_0.jpg"
        string_val: "./downloads/datasets/veri_resized/image_train/0305_c001_00086540_0.jpg"
        string_val: "./downloads/datasets/veri_resized/image_train/0305_c001_00086550_0.jpg"
        string_val: "./downloads/datasets/veri_resized/image_train/0305_c012_00085410_0.jpg"
        string_val: "./downloads/datasets/veri_resized/image_train/0305_c012_00085420_0.jpg"
        string_val: "./downloads/datasets/veri_resized/image_train/0305_c012_00085430_0.jpg"
        string_val: "./downloads/datasets/veri_resized/image_train/0305_c012_00085440_0.jpg"
        string_val: "./downloads/datasets/veri_resized/image_train/0305_c012_00085445_0.jpg"
        string_val: "./downloads/datasets/veri_resized/image_train/0305_c012_00085450_0.jpg"
        string_val: "./downloads/datasets/veri_resized/image_train/0305_c013_00085535_0.jpg"
        string_val: "./downloads/datasets/veri_resized/image_train/0305_c013_00085540_0.jpg"
        string_val: "./downloads/datasets/veri_resized/image_train/0305_c013_00085545_0.jpg"
        string_val: "./downloads/datasets/veri_resized/image_train/0305_c013_00085550_0.jpg"
        string_val: "./downloads/datasets/veri_resized/image_train/0305_c013_00085555_0.jpg"
        string_val: "./downloads/datasets/veri_resized/image_train/0305_c013_00085560_0.jpg"
        string_val: "./downloads/datasets/veri_resized/image_train/0305_c014_00083750_0.jpg"
        string_val: "./downloads/datasets/veri_resized/image_train/0305_c014_00083755_0.jpg"
        string_val: "./downloads/datasets/veri_resized/image_train/0305_c014_00083760_0.jpg"
        string_val: "./downloads/datasets/veri_resized/image_train/0305_c014_00083765_0.jpg"
        string_val: "./downloads/datasets/veri_resized/image_train/0305_c014_00083770_0.jpg"
        string_val: "./downloads/datasets/veri_resized/image_train/0305_c014_00083775_0.jpg"
        string_val: "./downloads/datasets/veri_resized/image_train/0305_c015_00083775_0.jpg"
        string_val: "./downloads/datasets/veri_resized/image_train/0305_c015_00083780_0.jpg"
        string_val: "./downloads/datasets/veri_resized/image_train/0305_c015_00083785_0.jpg"
        string_val: "./downloads/datasets/veri_resized/image_train/0305_c015_00083790_0.jpg"
        string_val: "./downloads/datasets/veri_resized/image_train/0305_c015_00083795_0.jpg"
        string_val: "./downloads/datasets/veri_resized/image_train/0305_c015_00083800_0.jpg"
        string_val: "./downloads/datasets/veri_resized/image_train/0305_c016_00083570_0.jpg"
        string_val: "./downloads/datasets/veri_resized/image_train/0305_c016_00083575_0.jpg"
        string_val: "./downloads/datasets/veri_resized/image_train/0305_c016_00083580_0.jpg"
        string_val: "./downloads/datasets/veri_resized/image_train/0305_c016_00083585_0.jpg"
        string_val: "./downloads/datasets/veri_resized/image_train/0305_c016_00083590_0.jpg"
        string_val: "./downloads/datasets/veri_resized/image_train/0305_c016_00083595_0.jpg"
        string_val: "./downloads/datasets/veri_resized/image_train/0305_c017_00084815_0.jpg"
        string_val: "./downloads/datasets/veri_resized/image_train/0305_c017_00084825_0.jpg"
        string_val: "./downloads/datasets/veri_resized/image_train/0305_c017_00084840_0.jpg"
        string_val: "./downloads/datasets/veri_resized/image_train/0305_c017_00084845_0.jpg"
        string_val: "./downloads/datasets/veri_resized/image_train/0305_c017_00084850_0.jpg"
        string_val: "./downloads/datasets/veri_resized/image_train/0305_c017_00084855_0.jpg"
        string_val: "./downloads/datasets/veri_resized/image_train/0305_c019_00084570_0.jpg"
        string_val: "./downloads/datasets/veri_resized/image_train/0305_c019_00084575_0.jpg"
        string_val: "./downloads/datasets/veri_resized/image_train/0305_c019_00084580_0.jpg"
        string_val: "./downloads/datasets/veri_resized/image_train/0305_c019_00084585_0.jpg"
        string_val: "./downloads/datasets/veri_resized/image_train/0305_c019_00084590_0.jpg"
        string_val: "./downloads/datasets/veri_resized/image_train/0305_c019_00084595_0.jpg"
        string_val: "./downloads/datasets/veri_resized/image_train/0324_c001_00039010_0.jpg"
        string_val: "./downloads/datasets/veri_resized/image_train/0324_c001_00039020_0.jpg"
        string_val: "./downloads/datasets/veri_resized/image_train/0324_c001_00039030_0.jpg"
        string_val: "./downloads/datasets/veri_resized/image_train/0324_c001_00039040_0.jpg"
        string_val: "./downloads/datasets/veri_resized/image_train/0324_c001_00039050_0.jpg"
        string_val: "./downloads/datasets/veri_resized/image_train/0324_c001_00039060_0.jpg"
        string_val: "./downloads/datasets/veri_resized/image_train/0324_c012_00039495_1.jpg"
        string_val: "./downloads/datasets/veri_resized/image_train/0324_c012_00039500_0.jpg"
        string_val: "./downloads/datasets/veri_resized/image_train/0324_c012_00039505_0.jpg"
        string_val: "./downloads/datasets/veri_resized/image_train/0324_c012_00039510_0.jpg"
        string_val: "./downloads/datasets/veri_resized/image_train/0324_c012_00039515_0.jpg"
        string_val: "./downloads/datasets/veri_resized/image_train/0324_c012_00039520_0.jpg"
        string_val: "./downloads/datasets/veri_resized/image_train/0324_c013_00039350_0.jpg"
        string_val: "./downloads/datasets/veri_resized/image_train/0324_c013_00039370_0.jpg"
        string_val: "./downloads/datasets/veri_resized/image_train/0324_c013_00039380_1.jpg"
        string_val: "./downloads/datasets/veri_resized/image_train/0324_c013_00039385_0.jpg"
        string_val: "./downloads/datasets/veri_resized/image_train/0324_c013_00039390_0.jpg"
        string_val: "./downloads/datasets/veri_resized/image_train/0324_c013_00039395_0.jpg"
        string_val: "./downloads/datasets/veri_resized/image_train/0324_c014_00041240_0.jpg"
        string_val: "./downloads/datasets/veri_resized/image_train/0324_c014_00041245_0.jpg"
        string_val: "./downloads/datasets/veri_resized/image_train/0324_c014_00041250_0.jpg"
        string_val: "./downloads/datasets/veri_resized/image_train/0324_c014_00041255_0.jpg"
        string_val: "./downloads/datasets/veri_resized/image_train/0324_c014_00041260_0.jpg"
        string_val: "./downloads/datasets/veri_resized/image_train/0324_c014_00041265_0.jpg"
        string_val: "./downloads/datasets/veri_resized/image_train/0324_c015_00041040_0.jpg"
        string_val: "./downloads/datasets/veri_resized/image_train/0324_c015_00041045_0.jpg"
        string_val: "./downloads/datasets/veri_resized/image_train/0324_c015_00041050_0.jpg"
        string_val: "./downloads/datasets/veri_resized/image_train/0324_c015_00041055_0.jpg"
        string_val: "./downloads/datasets/veri_resized/image_train/0324_c015_00041060_0.jpg"
        string_val: "./downloads/datasets/veri_resized/image_train/0324_c015_00041065_0.jpg"
        string_val: "./downloads/datasets/veri_resized/image_train/0324_c016_00042365_1.jpg"
        string_val: "./downloads/datasets/veri_resized/image_train/0324_c016_00042370_0.jpg"
        string_val: "./downloads/datasets/veri_resized/image_train/0324_c016_00042375_0.jpg"
        string_val: "./downloads/datasets/veri_resized/image_train/0324_c016_00042380_1.jpg"
        string_val: "./downloads/datasets/veri_resized/image_train/0324_c016_00042385_0.jpg"
        string_val: "./downloads/datasets/veri_resized/image_train/0324_c016_00042395_0.jpg"
        string_val: "./downloads/datasets/veri_resized/image_train/0324_c017_00040135_0.jpg"
        string_val: "./downloads/datasets/veri_resized/image_train/0324_c017_00040140_0.jpg"
        string_val: "./downloads/datasets/veri_resized/image_train/0324_c017_00040145_0.jpg"
        string_val: "./downloads/datasets/veri_resized/image_train/0324_c017_00040150_0.jpg"
        string_val: "./downloads/datasets/veri_resized/image_train/0324_c017_00040155_0.jpg"
…
  attr {
    key: "dtype"
    value {
      type: DT_FLOAT
    }
  }
}
node {
  name: "report_uninitialized_variables/IsVariableInitialized_27"
  op: "IsVariableInitialized"
  input: "conv3_1/1/conv3_1/1/bn/beta"
  attr {
    key: "_class"
    value {
      list {
        s: "loc:@conv3_1/1/conv3_1/1/bn/beta"
      }
    }
  }
  attr {
    key: "_output_shapes"
    value {
      list {
        shape {
        }
      }
    }
  }
  attr {
    key: "dtype"
    value {
      type: DT_FLOAT
    }
  }
}
node {
  name: "report_uninitialized_variables/IsVariableInitialized_28"
  op: "IsVariableInitialized"
  input: "conv3_1/1/conv3_1/1/bn/moving_mean"
  attr {
    key: "_class"
    value {
      list {
        s: "loc:@conv3_1/1/conv3_1/1/bn/moving_mean"
      }
    }
  }
  attr {
    key: "_output_shapes"
    value {
      list {
        shape {
        }
      }
    }
  }
  attr {
    key: "dtype"
    value {
      type: DT_FLOAT
    }
  }
}
node {
  name: "report_uninitialized_variables/IsVariableInitialized_29"
  op: "IsVariableInitialized"
  input: "conv3_1/1/conv3_1/1/bn/moving_variance"
  attr {
    key: "_class"
    value {
      list {
        s: "loc:@conv3_1/1/conv3_1/1/bn/moving_variance"
      }
    }
  }
  attr {
    key: "_output_shapes"
    value {
      list {
        shape {
        }
      }
    }
  }
  attr {
    key: "dtype"
    value {
      type: DT_FLOAT
    }
  }
}
node {
  name: "report_uninitialized_variables/IsVariableInitialized_30"
  op: "IsVariableInitialized"
  input: "conv3_1/2/weights"
  attr {
    key: "_class"
    value {
      list {
        s: "loc:@conv3_1/2/weights"
      }
    }
  }
  attr {
    key: "_output_shapes"
    value {
      list {
        shape {
        }
      }
    }
  }
  attr {
    key: "dtype"
    value {
      type: DT_FLOAT
    }
  }
}
node {
  name: "report_uninitialized_variables/IsVariableInitialized_31"
  op: "IsVariableInitialized"
  input: "conv3_1/2/biases"
  attr {
    key: "_class"
    value {
      list {
        s: "loc:@conv3_1/2/biases"
      }
    }
  }
  attr {
    key: "_output_shapes"
    value {
      list {
        shape {
        }
      }
    }
  }
  attr {
    key: "dtype"
    value {
      type: DT_FLOAT
    }
  }
}
node {
  name: "report_uninitialized_variables/IsVariableInitialized_32"
  op: "IsVariableInitialized"
  input: "conv3_1/projection/weights"
  attr {
    key: "_class"
    value {
      list {
        s: "loc:@conv3_1/projection/weights"
      }
    }
  }
  attr {
    key: "_output_shapes"
    value {
      list {
        shape {
        }
      }
    }
  }
  attr {
    key: "dtype"
    value {
      type: DT_FLOAT
    }
  }
}
node {
  name: "report_uninitialized_variables/IsVariableInitialized_33"
  op: "IsVariableInitialized"
  input: "conv3_3/bn/beta"
  attr {
    key: "_class"
    value {
      list {
        s: "loc:@conv3_3/bn/beta"
      }
    }
  }
  attr {
    key: "_output_shapes"
    value {
      list {
        shape {
        }
      }
    }
  }
  attr {
    key: "dtype"
    value {
      type: DT_FLOAT
    }
  }
}
node {
  name: "report_uninitialized_variables/IsVariableInitialized_34"
  op: "IsVariableInitialized"
  input: "conv3_3/bn/moving_mean"
  attr {
    key: "_class"
    value {
      list {
        s: "loc:@conv3_3/bn/moving_mean"
      }
    }
  }
  attr {
    key: "_output_shapes"
    value {
      list {
        shape {
        }
      }
    }
  }
  attr {
    key: "dtype"
    value {
      type: DT_FLOAT
    }
  }
}
node {
  name: "report_uninitialized_variables/IsVariableInitialized_35"
  op: "IsVariableInitialized"
  input: "conv3_3/bn/moving_variance"
  attr {
    key: "_class"
    value {
      list {
        s: "loc:@conv3_3/bn/moving_variance"
      }
    }
  }
  attr {
    key: "_output_shapes"
    value {
      list {
        shape {
        }
      }
    }
  }
  attr {
    key: "dtype"
    value {
      type: DT_FLOAT
    }
  }
}
node {
  name: "report_uninitialized_variables/IsVariableInitialized_36"
  op: "IsVariableInitialized"
  input: "conv3_3/1/weights"
  attr {
    key: "_class"
    value {
      list {
        s: "loc:@conv3_3/1/weights"
      }
    }
  }
  attr {
    key: "_output_shapes"
    value {
      list {
        shape {
        }
      }
    }
  }
  attr {
    key: "dtype"
    value {
      type: DT_FLOAT
    }
  }
}
node {
  name: "report_uninitialized_variables/IsVariableInitialized_37"
  op: "IsVariableInitialized"
  input: "conv3_3/1/conv3_3/1/bn/beta"
  attr {
    key: "_class"
    value {
      list {
        s: "loc:@conv3_3/1/conv3_3/1/bn/beta"
      }
    }
  }
  attr {
    key: "_output_shapes"
    value {
      list {
        shape {
        }
      }
    }
  }
  attr {
    key: "dtype"
    value {
      type: DT_FLOAT
    }
  }
}
node {
  name: "report_uninitialized_variables/IsVariableInitialized_38"
  op: "IsVariableInitialized"
  input: "conv3_3/1/conv3_3/1/bn/moving_mean"
  attr {
    key: "_class"
    value {
      list {
        s: "loc:@conv3_3/1/conv3_3/1/bn/moving_mean"
      }
    }
  }
  attr {
    key: "_output_shapes"
    value {
      list {
        shape {
        }
      }
    }
  }
  attr {
    key: "dtype"
    value {
      type: DT_FLOAT
    }
  }
}
node {
  name: "report_uninitialized_variables/IsVariableInitialized_39"
  op: "IsVariableInitialized"
  input: "conv3_3/1/conv3_3/1/bn/moving_variance"
  attr {
    key: "_class"
    value {
      list {
        s: "loc:@conv3_3/1/conv3_3/1/bn/moving_variance"
      }
    }
  }
  attr {
    key: "_output_shapes"
    value {
      list {
        shape {
        }
      }
    }
  }
  attr {
    key: "dtype"
    value {
      type: DT_FLOAT
    }
  }
}
node {
  name: "report_uninitialized_variables/IsVariableInitialized_40"
  op: "IsVariableInitialized"
  input: "conv3_3/2/weights"
  attr {
    key: "_class"
    value {
      list {
        s: "loc:@conv3_3/2/weights"
      }
    }
  }
  attr {
    key: "_output_shapes"
    value {
      list {
        shape {
        }
      }
    }
  }
  attr {
    key: "dtype"
    value {
      type: DT_FLOAT
    }
  }
}
node {
  name: "report_uninitialized_variables/IsVariableInitialized_41"
  op: "IsVariableInitialized"
  input: "conv3_3/2/biases"
  attr {
    key: "_class"
    value {
      list {
        s: "loc:@conv3_3/2/biases"
      }
    }
  }
  attr {
    key: "_output_shapes"
    value {
      list {
        shape {
        }
      }
    }
  }
  attr {
    key: "dtype"
    value {
      type: DT_FLOAT
    }
  }
}
node {
  name: "report_uninitialized_variables/IsVariableInitialized_42"
  op: "IsVariableInitialized"
  input: "conv4_1/bn/beta"
  attr {
    key: "_class"
    value {
      list {
        s: "loc:@conv4_1/bn/beta"
      }
    }
  }
  attr {
    key: "_output_shapes"
    value {
      list {
        shape {
        }
      }
    }
  }
  attr {
    key: "dtype"
    value {
      type: DT_FLOAT
    }
  }
}
node {
  name: "report_uninitialized_variables/IsVariableInitialized_43"
  op: "IsVariableInitialized"
  input: "conv4_1/bn/moving_mean"
  attr {
    key: "_class"
    value {
      list {
        s: "loc:@conv4_1/bn/moving_mean"
      }
    }
  }
  attr {
    key: "_output_shapes"
    value {
      list {
        shape {
        }
      }
    }
  }
  attr {
    key: "dtype"
    value {
      type: DT_FLOAT
    }
  }
}
node {
  name: "report_uninitialized_variables/IsVariableInitialized_44"
  op: "IsVariableInitialized"
  input: "conv4_1/bn/moving_variance"
  attr {
    key: "_class"
    value {
      list {
        s: "loc:@conv4_1/bn/moving_variance"
      }
    }
  }
  attr {
    key: "_output_shapes"
    value {
      list {
        shape {
        }
      }
    }
  }
  attr {
    key: "dtype"
    value {
      type: DT_FLOAT
    }
  }
}
node {
  name: "report_uninitialized_variables/IsVariableInitialized_45"
  op: "IsVariableInitialized"
  input: "conv4_1/1/weights"
  attr {
    key: "_class"
    value {
      list {
        s: "loc:@conv4_1/1/weights"
      }
    }
  }
  attr {
    key: "_output_shapes"
    value {
      list {
        shape {
        }
      }
    }
  }
  attr {
    key: "dtype"
    value {
      type: DT_FLOAT
    }
  }
}
node {
  name: "report_uninitialized_variables/IsVariableInitialized_46"
  op: "IsVariableInitialized"
  input: "conv4_1/1/conv4_1/1/bn/beta"
  attr {
    key: "_class"
    value {
      list {
        s: "loc:@conv4_1/1/conv4_1/1/bn/beta"
      }
    }
  }
  attr {
    key: "_output_shapes"
    value {
      list {
        shape {
        }
      }
    }
  }
  attr {
    key: "dtype"
    value {
      type: DT_FLOAT
    }
  }
}
node {
  name: "report_uninitialized_variables/IsVariableInitialized_47"
  op: "IsVariableInitialized"
  input: "conv4_1/1/conv4_1/1/bn/moving_mean"
  attr {
    key: "_class"
    value {
      list {
        s: "loc:@conv4_1/1/conv4_1/1/bn/moving_mean"
      }
    }
  }
  attr {
    key: "_output_shapes"
    value {
      list {
        shape {
        }
      }
    }
  }
  attr {
    key: "dtype"
    value {
      type: DT_FLOAT
    }
  }
}
node {
  name: "report_uninitialized_variables/IsVariableInitialized_48"
  op: "IsVariableInitialized"
  input: "conv4_1/1/conv4_1/1/bn/moving_variance"
  attr {
    key: "_class"
    value {
      list {
        s: "loc:@conv4_1/1/conv4_1/1/bn/moving_variance"
      }
    }
  }
  attr {
    key: "_output_shapes"
    value {
      list {
        shape {
        }
      }
    }
  }
  attr {
    key: "dtype"
    value {
      type: DT_FLOAT
    }
  }
}
node {
  name: "report_uninitialized_variables/IsVariableInitialized_49"
  op: "IsVariableInitialized"
  input: "conv4_1/2/weights"
  attr {
    key: "_class"
    value {
      list {
        s: "loc:@conv4_1/2/weights"
      }
    }
  }
  attr {
    key: "_output_shapes"
    value {
      list {
        shape {
        }
      }
    }
  }
  attr {
    key: "dtype"
    value {
      type: DT_FLOAT
    }
  }
}
node {
  name: "report_uninitialized_variables/IsVariableInitialized_50"
  op: "IsVariableInitialized"
  input: "conv4_1/2/biases"
  attr {
    key: "_class"
    value {
      list {
        s: "loc:@conv4_1/2/biases"
      }
    }
  }
  attr {
    key: "_output_shapes"
    value {
      list {
        shape {
        }
      }
    }
  }
  attr {
    key: "dtype"
    value {
      type: DT_FLOAT
    }
  }
}
node {
  name: "report_uninitialized_variables/IsVariableInitialized_51"
  op: "IsVariableInitialized"
  input: "conv4_1/projection/weights"
  attr {
    key: "_class"
    value {
      list {
        s: "loc:@conv4_1/projection/weights"
      }
    }
  }
  attr {
    key: "_output_shapes"
    value {
      list {
        shape {
        }
      }
    }
  }
  attr {
    key: "dtype"
    value {
      type: DT_FLOAT
    }
  }
}
node {
  name: "report_uninitialized_variables/IsVariableInitialized_52"
  op: "IsVariableInitialized"
  input: "conv4_3/bn/beta"
  attr {
    key: "_class"
    value {
      list {
        s: "loc:@conv4_3/bn/beta"
      }
    }
  }
  attr {
    key: "_output_shapes"
    value {
      list {
        shape {
        }
      }
    }
  }
  attr {
    key: "dtype"
    value {
      type: DT_FLOAT
    }
  }
}
node {
  name: "report_uninitialized_variables/IsVariableInitialized_53"
  op: "IsVariableInitialized"
  input: "conv4_3/bn/moving_mean"
  attr {
    key: "_class"
    value {
      list {
        s: "loc:@conv4_3/bn/moving_mean"
      }
    }
  }
  attr {
    key: "_output_shapes"
    value {
      list {
        shape {
        }
      }
    }
  }
  attr {
    key: "dtype"
    value {
      type: DT_FLOAT
    }
  }
}
node {
  name: "report_uninitialized_variables/IsVariableInitialized_54"
  op: "IsVariableInitialized"
  input: "conv4_3/bn/moving_variance"
  attr {
    key: "_class"
    value {
      list {
        s: "loc:@conv4_3/bn/moving_variance"
      }
    }
  }
  attr {
    key: "_output_shapes"
    value {
      list {
        shape {
        }
      }
    }
  }
  attr {
    key: "dtype"
    value {
      type: DT_FLOAT
    }
  }
}
node {
  name: "report_uninitialized_variables/IsVariableInitialized_55"
  op: "IsVariableInitialized"
  input: "conv4_3/1/weights"
  attr {
    key: "_class"
    value {
      list {
        s: "loc:@conv4_3/1/weights"
      }
    }
  }
  attr {
    key: "_output_shapes"
    value {
      list {
        shape {
        }
      }
    }
  }
  attr {
    key: "dtype"
    value {
      type: DT_FLOAT
    }
  }
}
node {
  name: "report_uninitialized_variables/IsVariableInitialized_56"
  op: "IsVariableInitialized"
  input: "conv4_3/1/conv4_3/1/bn/beta"
  attr {
    key: "_class"
    value {
      list {
        s: "loc:@conv4_3/1/conv4_3/1/bn/beta"
      }
    }
  }
  attr {
    key: "_output_shapes"
    value {
      list {
        shape {
        }
      }
    }
  }
  attr {
    key: "dtype"
    value {
      type: DT_FLOAT
    }
  }
}
node {
  name: "report_uninitialized_variables/IsVariableInitialized_57"
  op: "IsVariableInitialized"
  input: "conv4_3/1/conv4_3/1/bn/moving_mean"
  attr {
    key: "_class"
    value {
      list {
        s: "loc:@conv4_3/1/conv4_3/1/bn/moving_mean"
      }
    }
  }
  attr {
    key: "_output_shapes"
    value {
      list {
        shape {
        }
      }
    }
  }
  attr {
    key: "dtype"
    value {
      type: DT_FLOAT
    }
  }
}
node {
  name: "report_uninitialized_variables/IsVariableInitialized_58"
  op: "IsVariableInitialized"
  input: "conv4_3/1/conv4_3/1/bn/moving_variance"
  attr {
    key: "_class"
    value {
      list {
        s: "loc:@conv4_3/1/conv4_3/1/bn/moving_variance"
      }
    }
  }
  attr {
    key: "_output_shapes"
    value {
      list {
        shape {
        }
      }
    }
  }
  attr {
    key: "dtype"
    value {
      type: DT_FLOAT
    }
  }
}
node {
  name: "report_uninitialized_variables/IsVariableInitialized_59"
  op: "IsVariableInitialized"
  input: "conv4_3/2/weights"
  attr {
    key: "_class"
    value {
      list {
        s: "loc:@conv4_3/2/weights"
      }
    }
  }
  attr {
    key: "_output_shapes"
    value {
      list {
        shape {
        }
      }
    }
  }
  attr {
    key: "dtype"
    value {
      type: DT_FLOAT
    }
  }
}
node {
  name: "report_uninitialized_variables/IsVariableInitialized_60"
  op: "IsVariableInitialized"
  input: "conv4_3/2/biases"
  attr {
    key: "_class"
    value {
      list {
        s: "loc:@conv4_3/2/biases"
      }
    }
  }
  attr {
    key: "_output_shapes"
    value {
      list {
        shape {
        }
      }
    }
  }
  attr {
    key: "dtype"
    value {
      type: DT_FLOAT
    }
  }
}
node {
  name: "report_uninitialized_variables/IsVariableInitialized_61"
  op: "IsVariableInitialized"
  input: "fc1/weights"
  attr {
    key: "_class"
    value {
      list {
        s: "loc:@fc1/weights"
      }
    }
  }
  attr {
    key: "_output_shapes"
    value {
      list {
        shape {
        }
      }
    }
  }
  attr {
    key: "dtype"
    value {
      type: DT_FLOAT
    }
  }
}
node {
  name: "report_uninitialized_variables/IsVariableInitialized_62"
  op: "IsVariableInitialized"
  input: "fc1/fc1/bn/beta"
  attr {
    key: "_class"
    value {
      list {
        s: "loc:@fc1/fc1/bn/beta"
      }
    }
  }
  attr {
    key: "_output_shapes"
    value {
      list {
        shape {
        }
      }
    }
  }
  attr {
    key: "dtype"
    value {
      type: DT_FLOAT
    }
  }
}
node {
  name: "report_uninitialized_variables/IsVariableInitialized_63"
  op: "IsVariableInitialized"
  input: "fc1/fc1/bn/moving_mean"
  attr {
    key: "_class"
    value {
      list {
        s: "loc:@fc1/fc1/bn/moving_mean"
      }
    }
  }
  attr {
    key: "_output_shapes"
    value {
      list {
        shape {
        }
      }
    }
  }
  attr {
    key: "dtype"
    value {
      type: DT_FLOAT
    }
  }
}
node {
  name: "report_uninitialized_variables/IsVariableInitialized_64"
  op: "IsVariableInitialized"
  input: "fc1/fc1/bn/moving_variance"
  attr {
    key: "_class"
    value {
      list {
        s: "loc:@fc1/fc1/bn/moving_variance"
      }
    }
  }
  attr {
    key: "_output_shapes"
    value {
      list {
        shape {
        }
      }
    }
  }
  attr {
    key: "dtype"
    value {
      type: DT_FLOAT
    }
  }
}
node {
  name: "report_uninitialized_variables/IsVariableInitialized_65"
  op: "IsVariableInitialized"
  input: "ball/mean_vectors"
  attr {
    key: "_class"
    value {
      list {
        s: "loc:@ball/mean_vectors"
      }
    }
  }
  attr {
    key: "_output_shapes"
    value {
      list {
        shape {
        }
      }
    }
  }
  attr {
    key: "dtype"
    value {
      type: DT_FLOAT
    }
  }
}
node {
  name: "report_uninitialized_variables/IsVariableInitialized_66"
  op: "IsVariableInitialized"
  input: "ball/scale"
  attr {
    key: "_class"
    value {
      list {
        s: "loc:@ball/scale"
      }
    }
  }
  attr {
    key: "_output_shapes"
    value {
      list {
        shape {
        }
      }
    }
  }
  attr {
    key: "dtype"
    value {
      type: DT_FLOAT
    }
  }
}
node {
  name: "report_uninitialized_variables/IsVariableInitialized_67"
  op: "IsVariableInitialized"
  input: "global_step"
  attr {
    key: "_class"
    value {
      list {
        s: "loc:@global_step"
      }
    }
  }
  attr {
    key: "_output_shapes"
    value {
      list {
        shape {
        }
      }
    }
  }
  attr {
    key: "dtype"
    value {
      type: DT_INT64
    }
  }
}
node {
  name: "report_uninitialized_variables/IsVariableInitialized_68"
  op: "IsVariableInitialized"
  input: "mean/total"
  attr {
    key: "_class"
    value {
      list {
        s: "loc:@mean/total"
      }
    }
  }
  attr {
    key: "_output_shapes"
    value {
      list {
        shape {
        }
      }
    }
  }
  attr {
    key: "dtype"
    value {
      type: DT_FLOAT
    }
  }
}
node {
  name: "report_uninitialized_variables/IsVariableInitialized_69"
  op: "IsVariableInitialized"
  input: "mean/count"
  attr {
    key: "_class"
    value {
      list {
        s: "loc:@mean/count"
      }
    }
  }
  attr {
    key: "_output_shapes"
    value {
      list {
        shape {
        }
      }
    }
  }
  attr {
    key: "dtype"
    value {
      type: DT_FLOAT
    }
  }
}
node {
  name: "report_uninitialized_variables/IsVariableInitialized_70"
  op: "IsVariableInitialized"
  input: "mean_1/total"
  attr {
    key: "_class"
    value {
      list {
        s: "loc:@mean_1/total"
      }
    }
  }
  attr {
    key: "_output_shapes"
    value {
      list {
        shape {
        }
      }
    }
  }
  attr {
    key: "dtype"
    value {
      type: DT_FLOAT
    }
  }
}
node {
  name: "report_uninitialized_variables/IsVariableInitialized_71"
  op: "IsVariableInitialized"
  input: "mean_1/count"
  attr {
    key: "_class"
    value {
      list {
        s: "loc:@mean_1/count"
      }
    }
  }
  attr {
    key: "_output_shapes"
    value {
      list {
        shape {
        }
      }
    }
  }
  attr {
    key: "dtype"
    value {
      type: DT_FLOAT
    }
  }
}
node {
  name: "report_uninitialized_variables/IsVariableInitialized_72"
  op: "IsVariableInitialized"
  input: "mean_2/total"
  attr {
    key: "_class"
    value {
      list {
        s: "loc:@mean_2/total"
      }
    }
  }
  attr {
    key: "_output_shapes"
    value {
      list {
        shape {
        }
      }
    }
  }
  attr {
    key: "dtype"
    value {
      type: DT_FLOAT
    }
  }
}
node {
  name: "report_uninitialized_variables/IsVariableInitialized_73"
  op: "IsVariableInitialized"
  input: "mean_2/count"
  attr {
    key: "_class"
    value {
      list {
        s: "loc:@mean_2/count"
      }
    }
  }
  attr {
    key: "_output_shapes"
    value {
      list {
        shape {
        }
      }
    }
  }
  attr {
    key: "dtype"
    value {
      type: DT_FLOAT
    }
  }
}
node {
  name: "report_uninitialized_variables/IsVariableInitialized_74"
  op: "IsVariableInitialized"
  input: "mean_3/total"
  attr {
    key: "_class"
    value {
      list {
        s: "loc:@mean_3/total"
      }
    }
  }
  attr {
    key: "_output_shapes"
    value {
      list {
        shape {
        }
      }
    }
  }
  attr {
    key: "dtype"
    value {
      type: DT_FLOAT
    }
  }
}
node {
  name: "report_uninitialized_variables/IsVariableInitialized_75"
  op: "IsVariableInitialized"
  input: "mean_3/count"
  attr {
    key: "_class"
    value {
      list {
        s: "loc:@mean_3/count"
      }
    }
  }
  attr {
    key: "_output_shapes"
    value {
      list {
        shape {
        }
      }
    }
  }
  attr {
    key: "dtype"
    value {
      type: DT_FLOAT
    }
  }
}
node {
  name: "report_uninitialized_variables/stack"
  op: "Pack"
  input: "report_uninitialized_variables/IsVariableInitialized"
  input: "report_uninitialized_variables/IsVariableInitialized_1"
  input: "report_uninitialized_variables/IsVariableInitialized_2"
  input: "report_uninitialized_variables/IsVariableInitialized_3"
  input: "report_uninitialized_variables/IsVariableInitialized_4"
  input: "report_uninitialized_variables/IsVariableInitialized_5"
  input: "report_uninitialized_variables/IsVariableInitialized_6"
  input: "report_uninitialized_variables/IsVariableInitialized_7"
  input: "report_uninitialized_variables/IsVariableInitialized_8"
  input: "report_uninitialized_variables/IsVariableInitialized_9"
  input: "report_uninitialized_variables/IsVariableInitialized_10"
  input: "report_uninitialized_variables/IsVariableInitialized_11"
  input: "report_uninitialized_variables/IsVariableInitialized_12"
  input: "report_uninitialized_variables/IsVariableInitialized_13"
  input: "report_uninitialized_variables/IsVariableInitialized_14"
  input: "report_uninitialized_variables/IsVariableInitialized_15"
  input: "report_uninitialized_variables/IsVariableInitialized_16"
  input: "report_uninitialized_variables/IsVariableInitialized_17"
  input: "report_uninitialized_variables/IsVariableInitialized_18"
  input: "report_uninitialized_variables/IsVariableInitialized_19"
  input: "report_uninitialized_variables/IsVariableInitialized_20"
  input: "report_uninitialized_variables/IsVariableInitialized_21"
  input: "report_uninitialized_variables/IsVariableInitialized_22"
  input: "report_uninitialized_variables/IsVariableInitialized_23"
  input: "report_uninitialized_variables/IsVariableInitialized_24"
  input: "report_uninitialized_variables/IsVariableInitialized_25"
  input: "report_uninitialized_variables/IsVariableInitialized_26"
  input: "report_uninitialized_variables/IsVariableInitialized_27"
  input: "report_uninitialized_variables/IsVariableInitialized_28"
  input: "report_uninitialized_variables/IsVariableInitialized_29"
  input: "report_uninitialized_variables/IsVariableInitialized_30"
  input: "report_uninitialized_variables/IsVariableInitialized_31"
  input: "report_uninitialized_variables/IsVariableInitialized_32"
  input: "report_uninitialized_variables/IsVariableInitialized_33"
  input: "report_uninitialized_variables/IsVariableInitialized_34"
  input: "report_uninitialized_variables/IsVariableInitialized_35"
  input: "report_uninitialized_variables/IsVariableInitialized_36"
  input: "report_uninitialized_variables/IsVariableInitialized_37"
  input: "report_uninitialized_variables/IsVariableInitialized_38"
  input: "report_uninitialized_variables/IsVariableInitialized_39"
  input: "report_uninitialized_variables/IsVariableInitialized_40"
  input: "report_uninitialized_variables/IsVariableInitialized_41"
  input: "report_uninitialized_variables/IsVariableInitialized_42"
  input: "report_uninitialized_variables/IsVariableInitialized_43"
  input: "report_uninitialized_variables/IsVariableInitialized_44"
  input: "report_uninitialized_variables/IsVariableInitialized_45"
  input: "report_uninitialized_variables/IsVariableInitialized_46"
  input: "report_uninitialized_variables/IsVariableInitialized_47"
  input: "report_uninitialized_variables/IsVariableInitialized_48"
  input: "report_uninitialized_variables/IsVariableInitialized_49"
  input: "report_uninitialized_variables/IsVariableInitialized_50"
  input: "report_uninitialized_variables/IsVariableInitialized_51"
  input: "report_uninitialized_variables/IsVariableInitialized_52"
  input: "report_uninitialized_variables/IsVariableInitialized_53"
  input: "report_uninitialized_variables/IsVariableInitialized_54"
  input: "report_uninitialized_variables/IsVariableInitialized_55"
  input: "report_uninitialized_variables/IsVariableInitialized_56"
  input: "report_uninitialized_variables/IsVariableInitialized_57"
  input: "report_uninitialized_variables/IsVariableInitialized_58"
  input: "report_uninitialized_variables/IsVariableInitialized_59"
  input: "report_uninitialized_variables/IsVariableInitialized_60"
  input: "report_uninitialized_variables/IsVariableInitialized_61"
  input: "report_uninitialized_variables/IsVariableInitialized_62"
  input: "report_uninitialized_variables/IsVariableInitialized_63"
  input: "report_uninitialized_variables/IsVariableInitialized_64"
  input: "report_uninitialized_variables/IsVariableInitialized_65"
  input: "report_uninitialized_variables/IsVariableInitialized_66"
  input: "report_uninitialized_variables/IsVariableInitialized_67"
  input: "report_uninitialized_variables/IsVariableInitialized_68"
  input: "report_uninitialized_variables/IsVariableInitialized_69"
  input: "report_uninitialized_variables/IsVariableInitialized_70"
  input: "report_uninitialized_variables/IsVariableInitialized_71"
  input: "report_uninitialized_variables/IsVariableInitialized_72"
  input: "report_uninitialized_variables/IsVariableInitialized_73"
  input: "report_uninitialized_variables/IsVariableInitialized_74"
  input: "report_uninitialized_variables/IsVariableInitialized_75"
  device: "/device:CPU:0"
  attr {
    key: "N"
    value {
      i: 76
    }
  }
  attr {
    key: "T"
    value {
      type: DT_BOOL
    }
  }
  attr {
    key: "_output_shapes"
    value {
      list {
        shape {
          dim {
            size: 76
          }
        }
      }
    }
  }
  attr {
    key: "axis"
    value {
      i: 0
    }
  }
}
node {
  name: "report_uninitialized_variables/LogicalNot"
  op: "LogicalNot"
  input: "report_uninitialized_variables/stack"
  device: "/device:CPU:0"
  attr {
    key: "_output_shapes"
    value {
      list {
        shape {
          dim {
            size: 76
          }
        }
      }
    }
  }
}
node {
  name: "report_uninitialized_variables/Const"
  op: "Const"
  device: "/device:CPU:0"
  attr {
    key: "_output_shapes"
    value {
      list {
        shape {
          dim {
            size: 76
          }
        }
      }
    }
  }
  attr {
    key: "dtype"
    value {
      type: DT_STRING
    }
  }
  attr {
    key: "value"
    value {
      tensor {
        dtype: DT_STRING
        tensor_shape {
          dim {
            size: 76
          }
        }
        string_val: "conv1_1/weights"
        string_val: "conv1_1/conv1_1/bn/beta"
        string_val: "conv1_1/conv1_1/bn/moving_mean"
        string_val: "conv1_1/conv1_1/bn/moving_variance"
        string_val: "conv1_2/weights"
        string_val: "conv1_2/conv1_2/bn/beta"
        string_val: "conv1_2/conv1_2/bn/moving_mean"
        string_val: "conv1_2/conv1_2/bn/moving_variance"
        string_val: "conv2_1/1/weights"
        string_val: "conv2_1/1/conv2_1/1/bn/beta"
        string_val: "conv2_1/1/conv2_1/1/bn/moving_mean"
        string_val: "conv2_1/1/conv2_1/1/bn/moving_variance"
        string_val: "conv2_1/2/weights"
        string_val: "conv2_1/2/biases"
        string_val: "conv2_3/bn/beta"
        string_val: "conv2_3/bn/moving_mean"
        string_val: "conv2_3/bn/moving_variance"
        string_val: "conv2_3/1/weights"
        string_val: "conv2_3/1/conv2_3/1/bn/beta"
        string_val: "conv2_3/1/conv2_3/1/bn/moving_mean"
        string_val: "conv2_3/1/conv2_3/1/bn/moving_variance"
        string_val: "conv2_3/2/weights"
        string_val: "conv2_3/2/biases"
        string_val: "conv3_1/bn/beta"
        string_val: "conv3_1/bn/moving_mean"
        string_val: "conv3_1/bn/moving_variance"
        string_val: "conv3_1/1/weights"
        string_val: "conv3_1/1/conv3_1/1/bn/beta"
        string_val: "conv3_1/1/conv3_1/1/bn/moving_mean"
        string_val: "conv3_1/1/conv3_1/1/bn/moving_variance"
        string_val: "conv3_1/2/weights"
        string_val: "conv3_1/2/biases"
        string_val: "conv3_1/projection/weights"
        string_val: "conv3_3/bn/beta"
        string_val: "conv3_3/bn/moving_mean"
        string_val: "conv3_3/bn/moving_variance"
        string_val: "conv3_3/1/weights"
        string_val: "conv3_3/1/conv3_3/1/bn/beta"
        string_val: "conv3_3/1/conv3_3/1/bn/moving_mean"
        string_val: "conv3_3/1/conv3_3/1/bn/moving_variance"
        string_val: "conv3_3/2/weights"
        string_val: "conv3_3/2/biases"
        string_val: "conv4_1/bn/beta"
        string_val: "conv4_1/bn/moving_mean"
        string_val: "conv4_1/bn/moving_variance"
        string_val: "conv4_1/1/weights"
        string_val: "conv4_1/1/conv4_1/1/bn/beta"
        string_val: "conv4_1/1/conv4_1/1/bn/moving_mean"
        string_val: "conv4_1/1/conv4_1/1/bn/moving_variance"
        string_val: "conv4_1/2/weights"
        string_val: "conv4_1/2/biases"
        string_val: "conv4_1/projection/weights"
        string_val: "conv4_3/bn/beta"
        string_val: "conv4_3/bn/moving_mean"
        string_val: "conv4_3/bn/moving_variance"
        string_val: "conv4_3/1/weights"
        string_val: "conv4_3/1/conv4_3/1/bn/beta"
        string_val: "conv4_3/1/conv4_3/1/bn/moving_mean"
        string_val: "conv4_3/1/conv4_3/1/bn/moving_variance"
        string_val: "conv4_3/2/weights"
        string_val: "conv4_3/2/biases"
        string_val: "fc1/weights"
        string_val: "fc1/fc1/bn/beta"
        string_val: "fc1/fc1/bn/moving_mean"
        string_val: "fc1/fc1/bn/moving_variance"
        string_val: "ball/mean_vectors"
        string_val: "ball/scale"
        string_val: "global_step"
        string_val: "mean/total"
        string_val: "mean/count"
        string_val: "mean_1/total"
        string_val: "mean_1/count"
        string_val: "mean_2/total"
        string_val: "mean_2/count"
        string_val: "mean_3/total"
        string_val: "mean_3/count"
      }
    }
  }
}
node {
  name: "report_uninitialized_variables/boolean_mask/Shape"
  op: "Const"
  device: "/device:CPU:0"
  attr {
    key: "_output_shapes"
    value {
      list {
        shape {
          dim {
            size: 1
          }
        }
      }
    }
  }
  attr {
    key: "dtype"
    value {
      type: DT_INT32
    }
  }
  attr {
    key: "value"
    value {
      tensor {
        dtype: DT_INT32
        tensor_shape {
          dim {
            size: 1
          }
        }
        int_val: 76
      }
    }
  }
}
node {
  name: "report_uninitialized_variables/boolean_mask/strided_slice/stack"
  op: "Const"
  device: "/device:CPU:0"
  attr {
    key: "_output_shapes"
    value {
      list {
        shape {
          dim {
            size: 1
          }
        }
      }
    }
  }
  attr {
    key: "dtype"
    value {
      type: DT_INT32
    }
  }
  attr {
    key: "value"
    value {
      tensor {
        dtype: DT_INT32
        tensor_shape {
          dim {
            size: 1
          }
        }
        int_val: 0
      }
    }
  }
}
node {
  name: "report_uninitialized_variables/boolean_mask/strided_slice/stack_1"
  op: "Const"
  device: "/device:CPU:0"
  attr {
    key: "_output_shapes"
    value {
      list {
        shape {
          dim {
            size: 1
          }
        }
      }
    }
  }
  attr {
    key: "dtype"
    value {
      type: DT_INT32
    }
  }
  attr {
    key: "value"
    value {
      tensor {
        dtype: DT_INT32
        tensor_shape {
          dim {
            size: 1
          }
        }
        int_val: 1
      }
    }
  }
}
node {
  name: "report_uninitialized_variables/boolean_mask/strided_slice/stack_2"
  op: "Const"
  device: "/device:CPU:0"
  attr {
    key: "_output_shapes"
    value {
      list {
        shape {
          dim {
            size: 1
          }
        }
      }
    }
  }
  attr {
    key: "dtype"
    value {
      type: DT_INT32
    }
  }
  attr {
    key: "value"
    value {
      tensor {
        dtype: DT_INT32
        tensor_shape {
          dim {
            size: 1
          }
        }
        int_val: 1
      }
    }
  }
}
node {
  name: "report_uninitialized_variables/boolean_mask/strided_slice"
  op: "StridedSlice"
  input: "report_uninitialized_variables/boolean_mask/Shape"
  input: "report_uninitialized_variables/boolean_mask/strided_slice/stack"
  input: "report_uninitialized_variables/boolean_mask/strided_slice/stack_1"
  input: "report_uninitialized_variables/boolean_mask/strided_slice/stack_2"
  device: "/device:CPU:0"
  attr {
    key: "Index"
    value {
      type: DT_INT32
    }
  }
  attr {
    key: "T"
    value {
      type: DT_INT32
    }
  }
  attr {
    key: "_output_shapes"
    value {
      list {
        shape {
          dim {
            size: 1
          }
        }
      }
    }
  }
  attr {
    key: "begin_mask"
    value {
      i: 0
    }
  }
  attr {
    key: "ellipsis_mask"
    value {
      i: 0
    }
  }
  attr {
    key: "end_mask"
    value {
      i: 0
    }
  }
  attr {
    key: "new_axis_mask"
    value {
      i: 0
    }
  }
  attr {
    key: "shrink_axis_mask"
    value {
      i: 0
    }
  }
}
node {
  name: "report_uninitialized_variables/boolean_mask/Prod/reduction_indices"
  op: "Const"
  device: "/device:CPU:0"
  attr {
    key: "_output_shapes"
    value {
      list {
        shape {
          dim {
            size: 1
          }
        }
      }
    }
  }
  attr {
    key: "dtype"
    value {
      type: DT_INT32
    }
  }
  attr {
    key: "value"
    value {
      tensor {
        dtype: DT_INT32
        tensor_shape {
          dim {
            size: 1
          }
        }
        int_val: 0
      }
    }
  }
}
node {
  name: "report_uninitialized_variables/boolean_mask/Prod"
  op: "Prod"
  input: "report_uninitialized_variables/boolean_mask/strided_slice"
  input: "report_uninitialized_variables/boolean_mask/Prod/reduction_indices"
  device: "/device:CPU:0"
  attr {
    key: "T"
    value {
      type: DT_INT32
    }
  }
  attr {
    key: "Tidx"
    value {
      type: DT_INT32
    }
  }
  attr {
    key: "_output_shapes"
    value {
      list {
        shape {
        }
      }
    }
  }
  attr {
    key: "keep_dims"
    value {
      b: false
    }
  }
}
node {
  name: "report_uninitialized_variables/boolean_mask/Shape_1"
  op: "Const"
  device: "/device:CPU:0"
  attr {
    key: "_output_shapes"
    value {
      list {
        shape {
          dim {
            size: 1
          }
        }
      }
    }
  }
  attr {
    key: "dtype"
    value {
      type: DT_INT32
    }
  }
  attr {
    key: "value"
    value {
      tensor {
        dtype: DT_INT32
        tensor_shape {
          dim {
            size: 1
          }
        }
        int_val: 76
      }
    }
  }
}
node {
  name: "report_uninitialized_variables/boolean_mask/strided_slice_1/stack"
  op: "Const"
  device: "/device:CPU:0"
  attr {
    key: "_output_shapes"
    value {
      list {
        shape {
          dim {
            size: 1
          }
        }
      }
    }
  }
  attr {
    key: "dtype"
    value {
      type: DT_INT32
    }
  }
  attr {
    key: "value"
    value {
      tensor {
        dtype: DT_INT32
        tensor_shape {
          dim {
            size: 1
          }
        }
        int_val: 0
      }
    }
  }
}
node {
  name: "report_uninitialized_variables/boolean_mask/strided_slice_1/stack_1"
  op: "Const"
  device: "/device:CPU:0"
  attr {
    key: "_output_shapes"
    value {
      list {
        shape {
          dim {
            size: 1
          }
        }
      }
    }
  }
  attr {
    key: "dtype"
    value {
      type: DT_INT32
    }
  }
  attr {
    key: "value"
    value {
      tensor {
        dtype: DT_INT32
        tensor_shape {
          dim {
            size: 1
          }
        }
        int_val: 0
      }
    }
  }
}
node {
  name: "report_uninitialized_variables/boolean_mask/strided_slice_1/stack_2"
  op: "Const"
  device: "/device:CPU:0"
  attr {
    key: "_output_shapes"
    value {
      list {
        shape {
          dim {
            size: 1
          }
        }
      }
    }
  }
  attr {
    key: "dtype"
    value {
      type: DT_INT32
    }
  }
  attr {
    key: "value"
    value {
      tensor {
        dtype: DT_INT32
        tensor_shape {
          dim {
            size: 1
          }
        }
        int_val: 1
      }
    }
  }
}
node {
  name: "report_uninitialized_variables/boolean_mask/strided_slice_1"
  op: "StridedSlice"
  input: "report_uninitialized_variables/boolean_mask/Shape_1"
  input: "report_uninitialized_variables/boolean_mask/strided_slice_1/stack"
  input: "report_uninitialized_variables/boolean_mask/strided_slice_1/stack_1"
  input: "report_uninitialized_variables/boolean_mask/strided_slice_1/stack_2"
  device: "/device:CPU:0"
  attr {
    key: "Index"
    value {
      type: DT_INT32
    }
  }
  attr {
    key: "T"
    value {
      type: DT_INT32
    }
  }
  attr {
    key: "_output_shapes"
    value {
      list {
        shape {
          dim {
          }
        }
      }
    }
  }
  attr {
    key: "begin_mask"
    value {
      i: 1
    }
  }
  attr {
    key: "ellipsis_mask"
    value {
      i: 0
    }
  }
  attr {
    key: "end_mask"
    value {
      i: 0
    }
  }
  attr {
    key: "new_axis_mask"
    value {
      i: 0
    }
  }
  attr {
    key: "shrink_axis_mask"
    value {
      i: 0
    }
  }
}
node {
  name: "report_uninitialized_variables/boolean_mask/Shape_2"
  op: "Const"
  device: "/device:CPU:0"
  attr {
    key: "_output_shapes"
    value {
      list {
        shape {
          dim {
            size: 1
          }
        }
      }
    }
  }
  attr {
    key: "dtype"
    value {
      type: DT_INT32
    }
  }
  attr {
    key: "value"
    value {
      tensor {
        dtype: DT_INT32
        tensor_shape {
          dim {
            size: 1
          }
        }
        int_val: 76
      }
    }
  }
}
node {
  name: "report_uninitialized_variables/boolean_mask/strided_slice_2/stack"
  op: "Const"
  device: "/device:CPU:0"
  attr {
    key: "_output_shapes"
    value {
      list {
        shape {
          dim {
            size: 1
          }
        }
      }
    }
  }
  attr {
    key: "dtype"
    value {
      type: DT_INT32
    }
  }
  attr {
    key: "value"
    value {
      tensor {
        dtype: DT_INT32
        tensor_shape {
          dim {
            size: 1
          }
        }
        int_val: 1
      }
    }
  }
}
node {
  name: "report_uninitialized_variables/boolean_mask/strided_slice_2/stack_1"
  op: "Const"
  device: "/device:CPU:0"
  attr {
    key: "_output_shapes"
    value {
      list {
        shape {
          dim {
            size: 1
          }
        }
      }
    }
  }
  attr {
    key: "dtype"
    value {
      type: DT_INT32
    }
  }
  attr {
    key: "value"
    value {
      tensor {
        dtype: DT_INT32
        tensor_shape {
          dim {
            size: 1
          }
        }
        int_val: 0
      }
    }
  }
}
node {
  name: "report_uninitialized_variables/boolean_mask/strided_slice_2/stack_2"
  op: "Const"
  device: "/device:CPU:0"
  attr {
    key: "_output_shapes"
    value {
      list {
        shape {
          dim {
            size: 1
          }
        }
      }
    }
  }
  attr {
    key: "dtype"
    value {
      type: DT_INT32
    }
  }
  attr {
    key: "value"
    value {
      tensor {
        dtype: DT_INT32
        tensor_shape {
          dim {
            size: 1
          }
        }
        int_val: 1
      }
    }
  }
}
node {
  name: "report_uninitialized_variables/boolean_mask/strided_slice_2"
  op: "StridedSlice"
  input: "report_uninitialized_variables/boolean_mask/Shape_2"
  input: "report_uninitialized_variables/boolean_mask/strided_slice_2/stack"
  input: "report_uninitialized_variables/boolean_mask/strided_slice_2/stack_1"
  input: "report_uninitialized_variables/boolean_mask/strided_slice_2/stack_2"
  device: "/device:CPU:0"
  attr {
    key: "Index"
    value {
      type: DT_INT32
    }
  }
  attr {
    key: "T"
    value {
      type: DT_INT32
    }
  }
  attr {
    key: "_output_shapes"
    value {
      list {
        shape {
          dim {
          }
        }
      }
    }
  }
  attr {
    key: "begin_mask"
    value {
      i: 0
    }
  }
  attr {
    key: "ellipsis_mask"
    value {
      i: 0
    }
  }
  attr {
    key: "end_mask"
    value {
      i: 1
    }
  }
  attr {
    key: "new_axis_mask"
    value {
      i: 0
    }
  }
  attr {
    key: "shrink_axis_mask"
    value {
      i: 0
    }
  }
}
node {
  name: "report_uninitialized_variables/boolean_mask/concat/values_1"
  op: "Pack"
  input: "report_uninitialized_variables/boolean_mask/Prod"
  device: "/device:CPU:0"
  attr {
    key: "N"
    value {
      i: 1
    }
  }
  attr {
    key: "T"
    value {
      type: DT_INT32
    }
  }
  attr {
    key: "_output_shapes"
    value {
      list {
        shape {
          dim {
            size: 1
          }
        }
      }
    }
  }
  attr {
    key: "axis"
    value {
      i: 0
    }
  }
}
node {
  name: "report_uninitialized_variables/boolean_mask/concat/axis"
  op: "Const"
  device: "/device:CPU:0"
  attr {
    key: "_output_shapes"
    value {
      list {
        shape {
        }
      }
    }
  }
  attr {
    key: "dtype"
    value {
      type: DT_INT32
    }
  }
  attr {
    key: "value"
    value {
      tensor {
        dtype: DT_INT32
        tensor_shape {
        }
        int_val: 0
      }
    }
  }
}
node {
  name: "report_uninitialized_variables/boolean_mask/concat"
  op: "ConcatV2"
  input: "report_uninitialized_variables/boolean_mask/strided_slice_1"
  input: "report_uninitialized_variables/boolean_mask/concat/values_1"
  input: "report_uninitialized_variables/boolean_mask/strided_slice_2"
  input: "report_uninitialized_variables/boolean_mask/concat/axis"
  device: "/device:CPU:0"
  attr {
    key: "N"
    value {
      i: 3
    }
  }
  attr {
    key: "T"
    value {
      type: DT_INT32
    }
  }
  attr {
    key: "Tidx"
    value {
      type: DT_INT32
    }
  }
  attr {
    key: "_output_shapes"
    value {
      list {
        shape {
          dim {
            size: 1
          }
        }
      }
    }
  }
}
node {
  name: "report_uninitialized_variables/boolean_mask/Reshape"
  op: "Reshape"
  input: "report_uninitialized_variables/Const"
  input: "report_uninitialized_variables/boolean_mask/concat"
  device: "/device:CPU:0"
  attr {
    key: "T"
    value {
      type: DT_STRING
    }
  }
  attr {
    key: "Tshape"
    value {
      type: DT_INT32
    }
  }
  attr {
    key: "_output_shapes"
    value {
      list {
        shape {
          dim {
            size: 76
          }
        }
      }
    }
  }
}
node {
  name: "report_uninitialized_variables/boolean_mask/Reshape_1/shape"
  op: "Const"
  device: "/device:CPU:0"
  attr {
    key: "_output_shapes"
    value {
      list {
        shape {
          dim {
            size: 1
          }
        }
      }
    }
  }
  attr {
    key: "dtype"
    value {
      type: DT_INT32
    }
  }
  attr {
    key: "value"
    value {
      tensor {
        dtype: DT_INT32
        tensor_shape {
          dim {
            size: 1
          }
        }
        int_val: -1
      }
    }
  }
}
node {
  name: "report_uninitialized_variables/boolean_mask/Reshape_1"
  op: "Reshape"
  input: "report_uninitialized_variables/LogicalNot"
  input: "report_uninitialized_variables/boolean_mask/Reshape_1/shape"
  device: "/device:CPU:0"
  attr {
    key: "T"
    value {
      type: DT_BOOL
    }
  }
  attr {
    key: "Tshape"
    value {
      type: DT_INT32
    }
  }
  attr {
    key: "_output_shapes"
    value {
      list {
        shape {
          dim {
            size: 76
          }
        }
      }
    }
  }
}
node {
  name: "report_uninitialized_variables/boolean_mask/Where"
  op: "Where"
  input: "report_uninitialized_variables/boolean_mask/Reshape_1"
  device: "/device:CPU:0"
  attr {
    key: "T"
    value {
      type: DT_BOOL
    }
  }
  attr {
    key: "_output_shapes"
    value {
      list {
        shape {
          dim {
            size: -1
          }
          dim {
            size: 1
          }
        }
      }
    }
  }
}
node {
  name: "report_uninitialized_variables/boolean_mask/Squeeze"
  op: "Squeeze"
  input: "report_uninitialized_variables/boolean_mask/Where"
  device: "/device:CPU:0"
  attr {
    key: "T"
    value {
      type: DT_INT64
    }
  }
  attr {
    key: "_output_shapes"
    value {
      list {
        shape {
          dim {
            size: -1
          }
        }
      }
    }
  }
  attr {
    key: "squeeze_dims"
    value {
      list {
        i: 1
      }
    }
  }
}
node {
  name: "report_uninitialized_variables/boolean_mask/GatherV2/axis"
  op: "Const"
  device: "/device:CPU:0"
  attr {
    key: "_output_shapes"
    value {
      list {
        shape {
        }
      }
    }
  }
  attr {
    key: "dtype"
    value {
      type: DT_INT32
    }
  }
  attr {
    key: "value"
    value {
      tensor {
        dtype: DT_INT32
        tensor_shape {
        }
        int_val: 0
      }
    }
  }
}
node {
  name: "report_uninitialized_variables/boolean_mask/GatherV2"
  op: "GatherV2"
  input: "report_uninitialized_variables/boolean_mask/Reshape"
  input: "report_uninitialized_variables/boolean_mask/Squeeze"
  input: "report_uninitialized_variables/boolean_mask/GatherV2/axis"
  device: "/device:CPU:0"
  attr {
    key: "Taxis"
    value {
      type: DT_INT32
    }
  }
  attr {
    key: "Tindices"
    value {
      type: DT_INT64
    }
  }
  attr {
    key: "Tparams"
    value {
      type: DT_STRING
    }
  }
  attr {
    key: "_output_shapes"
    value {
      list {
        shape {
          dim {
            size: -1
          }
        }
      }
    }
  }
  attr {
    key: "batch_dims"
    value {
      i: 0
    }
  }
}
node {
  name: "init"
  op: "NoOp"
  input: "^ball/mean_vectors/Assign"
  input: "^ball/scale/Assign"
  input: "^conv1_1/conv1_1/bn/beta/Assign"
  input: "^conv1_1/conv1_1/bn/moving_mean/Assign"
  input: "^conv1_1/conv1_1/bn/moving_variance/Assign"
  input: "^conv1_1/weights/Assign"
  input: "^conv1_2/conv1_2/bn/beta/Assign"
  input: "^conv1_2/conv1_2/bn/moving_mean/Assign"
  input: "^conv1_2/conv1_2/bn/moving_variance/Assign"
  input: "^conv1_2/weights/Assign"
  input: "^conv2_1/1/conv2_1/1/bn/beta/Assign"
  input: "^conv2_1/1/conv2_1/1/bn/moving_mean/Assign"
  input: "^conv2_1/1/conv2_1/1/bn/moving_variance/Assign"
  input: "^conv2_1/1/weights/Assign"
  input: "^conv2_1/2/biases/Assign"
  input: "^conv2_1/2/weights/Assign"
  input: "^conv2_3/1/conv2_3/1/bn/beta/Assign"
  input: "^conv2_3/1/conv2_3/1/bn/moving_mean/Assign"
  input: "^conv2_3/1/conv2_3/1/bn/moving_variance/Assign"
  input: "^conv2_3/1/weights/Assign"
  input: "^conv2_3/2/biases/Assign"
  input: "^conv2_3/2/weights/Assign"
  input: "^conv2_3/bn/beta/Assign"
  input: "^conv2_3/bn/moving_mean/Assign"
  input: "^conv2_3/bn/moving_variance/Assign"
  input: "^conv3_1/1/conv3_1/1/bn/beta/Assign"
  input: "^conv3_1/1/conv3_1/1/bn/moving_mean/Assign"
  input: "^conv3_1/1/conv3_1/1/bn/moving_variance/Assign"
  input: "^conv3_1/1/weights/Assign"
  input: "^conv3_1/2/biases/Assign"
  input: "^conv3_1/2/weights/Assign"
  input: "^conv3_1/bn/beta/Assign"
  input: "^conv3_1/bn/moving_mean/Assign"
  input: "^conv3_1/bn/moving_variance/Assign"
  input: "^conv3_1/projection/weights/Assign"
  input: "^conv3_3/1/conv3_3/1/bn/beta/Assign"
  input: "^conv3_3/1/conv3_3/1/bn/moving_mean/Assign"
  input: "^conv3_3/1/conv3_3/1/bn/moving_variance/Assign"
  input: "^conv3_3/1/weights/Assign"
  input: "^conv3_3/2/biases/Assign"
  input: "^conv3_3/2/weights/Assign"
  input: "^conv3_3/bn/beta/Assign"
  input: "^conv3_3/bn/moving_mean/Assign"
  input: "^conv3_3/bn/moving_variance/Assign"
  input: "^conv4_1/1/conv4_1/1/bn/beta/Assign"
  input: "^conv4_1/1/conv4_1/1/bn/moving_mean/Assign"
  input: "^conv4_1/1/conv4_1/1/bn/moving_variance/Assign"
  input: "^conv4_1/1/weights/Assign"
  input: "^conv4_1/2/biases/Assign"
  input: "^conv4_1/2/weights/Assign"
  input: "^conv4_1/bn/beta/Assign"
  input: "^conv4_1/bn/moving_mean/Assign"
  input: "^conv4_1/bn/moving_variance/Assign"
  input: "^conv4_1/projection/weights/Assign"
  input: "^conv4_3/1/conv4_3/1/bn/beta/Assign"
  input: "^conv4_3/1/conv4_3/1/bn/moving_mean/Assign"
  input: "^conv4_3/1/conv4_3/1/bn/moving_variance/Assign"
  input: "^conv4_3/1/weights/Assign"
  input: "^conv4_3/2/biases/Assign"
  input: "^conv4_3/2/weights/Assign"
  input: "^conv4_3/bn/beta/Assign"
  input: "^conv4_3/bn/moving_mean/Assign"
  input: "^conv4_3/bn/moving_variance/Assign"
  input: "^fc1/fc1/bn/beta/Assign"
  input: "^fc1/fc1/bn/moving_mean/Assign"
  input: "^fc1/fc1/bn/moving_variance/Assign"
  input: "^fc1/weights/Assign"
  input: "^global_step/Assign"
}
node {
  name: "init_1"
  op: "NoOp"
  input: "^mean/count/Assign"
  input: "^mean/total/Assign"
  input: "^mean_1/count/Assign"
  input: "^mean_1/total/Assign"
  input: "^mean_2/count/Assign"
  input: "^mean_2/total/Assign"
  input: "^mean_3/count/Assign"
  input: "^mean_3/total/Assign"
  attr {
    key: "_has_manual_control_dependencies"
    value {
      b: true
    }
  }
}
node {
  name: "init_all_tables"
  op: "NoOp"
  attr {
    key: "_has_manual_control_dependencies"
    value {
      b: true
    }
  }
}
node {
  name: "group_deps"
  op: "NoOp"
  input: "^init_1"
  input: "^init_all_tables"
}
versions {
  producer: 1286
}
